graph_node
  name: "data"
  type: "Input"
  top: "data"
  input_param {
    shape: { dim: 1 dim: 3 dim: 112 dim: 112 }
  }
}

graph_node
	bottom: "data"
	top: "conv_1_conv2d"
	name: "conv_1_conv2d"
	type: "Convolution"
	convolution_param {
		num_output: 64
		kernel_size: 3
		pad: 1
		stride: 2
		bias_term: false
	}
}

graph_node
  bottom: "conv_1_conv2d"
  top: "conv_1_batchnorm"
  name: "conv_1_batchnorm"
  type: "BatchNorm"
  batch_norm_param {
    use_global_stats: true
    moving_average_fraction: 0.9
    eps: 0.001
  }
}
graph_node
  bottom: "conv_1_batchnorm"
  top: "conv_1_batchnorm"
  name: "conv_1_batchnorm_scale"
  type: "Scale"
  scale_param { bias_term: true }
}

graph_node
  bottom: "conv_1_batchnorm"
  top: "conv_1_relu"
  name: "conv_1_relu"
  type: "PReLU"
}

graph_node
	bottom: "conv_1_relu"
	top: "res_2_block0_conv_sep_conv2d"
	name: "res_2_block0_conv_sep_conv2d"
	type: "Convolution"
	convolution_param {
		num_output: 64
		kernel_size: 1
		pad: 0
		stride: 1
		bias_term: false
	}
}

graph_node
  bottom: "res_2_block0_conv_sep_conv2d"
  top: "res_2_block0_conv_sep_batchnorm"
  name: "res_2_block0_conv_sep_batchnorm"
  type: "BatchNorm"
  batch_norm_param {
    use_global_stats: true
    moving_average_fraction: 0.9
    eps: 0.001
  }
}
graph_node
  bottom: "res_2_block0_conv_sep_batchnorm"
  top: "res_2_block0_conv_sep_batchnorm"
  name: "res_2_block0_conv_sep_batchnorm_scale"
  type: "Scale"
  scale_param { bias_term: true }
}

graph_node
  bottom: "res_2_block0_conv_sep_batchnorm"
  top: "res_2_block0_conv_sep_relu"
  name: "res_2_block0_conv_sep_relu"
  type: "PReLU"
}

graph_node
	bottom: "res_2_block0_conv_sep_relu"
	top: "res_2_block0_conv_dw_conv2d"
	name: "res_2_block0_conv_dw_conv2d"
	type: "ConvolutionDepthwise"
	convolution_param {
		num_output: 64
		kernel_size: 3
		pad: 1
		group: 64
            engine:CAFFE
		stride: 1
		bias_term: false
	}
}

graph_node
  bottom: "res_2_block0_conv_dw_conv2d"
  top: "res_2_block0_conv_dw_batchnorm"
  name: "res_2_block0_conv_dw_batchnorm"
  type: "BatchNorm"
  batch_norm_param {
    use_global_stats: true
    moving_average_fraction: 0.9
    eps: 0.001
  }
}
graph_node
  bottom: "res_2_block0_conv_dw_batchnorm"
  top: "res_2_block0_conv_dw_batchnorm"
  name: "res_2_block0_conv_dw_batchnorm_scale"
  type: "Scale"
  scale_param { bias_term: true }
}

graph_node
  bottom: "res_2_block0_conv_dw_batchnorm"
  top: "res_2_block0_conv_dw_relu"
  name: "res_2_block0_conv_dw_relu"
  type: "PReLU"
}

graph_node
	bottom: "res_2_block0_conv_dw_relu"
	top: "res_2_block0_conv_proj_conv2d"
	name: "res_2_block0_conv_proj_conv2d"
	type: "Convolution"
	convolution_param {
		num_output: 64
		kernel_size: 1
		pad: 0
		stride: 1
		bias_term: false
	}
}

graph_node
  bottom: "res_2_block0_conv_proj_conv2d"
  top: "res_2_block0_conv_proj_batchnorm"
  name: "res_2_block0_conv_proj_batchnorm"
  type: "BatchNorm"
  batch_norm_param {
    use_global_stats: true
    moving_average_fraction: 0.9
    eps: 0.001
  }
}
graph_node
  bottom: "res_2_block0_conv_proj_batchnorm"
  top: "res_2_block0_conv_proj_batchnorm"
  name: "res_2_block0_conv_proj_batchnorm_scale"
  type: "Scale"
  scale_param { bias_term: true }
}

graph_node
  name: "_plus0"
  type: "Eltwise"
  bottom: "res_2_block0_conv_proj_batchnorm"
  bottom: "conv_1_relu"
  top: "_plus0"
  eltwise_param { operation: SUM }
}

graph_node
	bottom: "_plus0"
	top: "res_2_block1_conv_sep_conv2d"
	name: "res_2_block1_conv_sep_conv2d"
	type: "Convolution"
	convolution_param {
		num_output: 64
		kernel_size: 1
		pad: 0
		stride: 1
		bias_term: false
	}
}

graph_node
  bottom: "res_2_block1_conv_sep_conv2d"
  top: "res_2_block1_conv_sep_batchnorm"
  name: "res_2_block1_conv_sep_batchnorm"
  type: "BatchNorm"
  batch_norm_param {
    use_global_stats: true
    moving_average_fraction: 0.9
    eps: 0.001
  }
}
graph_node
  bottom: "res_2_block1_conv_sep_batchnorm"
  top: "res_2_block1_conv_sep_batchnorm"
  name: "res_2_block1_conv_sep_batchnorm_scale"
  type: "Scale"
  scale_param { bias_term: true }
}

graph_node
  bottom: "res_2_block1_conv_sep_batchnorm"
  top: "res_2_block1_conv_sep_relu"
  name: "res_2_block1_conv_sep_relu"
  type: "PReLU"
}

graph_node
	bottom: "res_2_block1_conv_sep_relu"
	top: "res_2_block1_conv_dw_conv2d"
	name: "res_2_block1_conv_dw_conv2d"
	type: "ConvolutionDepthwise"
	convolution_param {
		num_output: 64
		kernel_size: 3
		pad: 1
		group: 64
            engine:CAFFE
		stride: 1
		bias_term: false
	}
}

graph_node
  bottom: "res_2_block1_conv_dw_conv2d"
  top: "res_2_block1_conv_dw_batchnorm"
  name: "res_2_block1_conv_dw_batchnorm"
  type: "BatchNorm"
  batch_norm_param {
    use_global_stats: true
    moving_average_fraction: 0.9
    eps: 0.001
  }
}
graph_node
  bottom: "res_2_block1_conv_dw_batchnorm"
  top: "res_2_block1_conv_dw_batchnorm"
  name: "res_2_block1_conv_dw_batchnorm_scale"
  type: "Scale"
  scale_param { bias_term: true }
}

graph_node
  bottom: "res_2_block1_conv_dw_batchnorm"
  top: "res_2_block1_conv_dw_relu"
  name: "res_2_block1_conv_dw_relu"
  type: "PReLU"
}

graph_node
	bottom: "res_2_block1_conv_dw_relu"
	top: "res_2_block1_conv_proj_conv2d"
	name: "res_2_block1_conv_proj_conv2d"
	type: "Convolution"
	convolution_param {
		num_output: 64
		kernel_size: 1
		pad: 0
		stride: 1
		bias_term: false
	}
}

graph_node
  bottom: "res_2_block1_conv_proj_conv2d"
  top: "res_2_block1_conv_proj_batchnorm"
  name: "res_2_block1_conv_proj_batchnorm"
  type: "BatchNorm"
  batch_norm_param {
    use_global_stats: true
    moving_average_fraction: 0.9
    eps: 0.001
  }
}
graph_node
  bottom: "res_2_block1_conv_proj_batchnorm"
  top: "res_2_block1_conv_proj_batchnorm"
  name: "res_2_block1_conv_proj_batchnorm_scale"
  type: "Scale"
  scale_param { bias_term: true }
}

graph_node
  name: "_plus1"
  type: "Eltwise"
  bottom: "res_2_block1_conv_proj_batchnorm"
  bottom: "_plus0"
  top: "_plus1"
  eltwise_param { operation: SUM }
}

graph_node
	bottom: "_plus1"
	top: "res_2_block2_conv_sep_conv2d"
	name: "res_2_block2_conv_sep_conv2d"
	type: "Convolution"
	convolution_param {
		num_output: 64
		kernel_size: 1
		pad: 0
		stride: 1
		bias_term: false
	}
}

graph_node
  bottom: "res_2_block2_conv_sep_conv2d"
  top: "res_2_block2_conv_sep_batchnorm"
  name: "res_2_block2_conv_sep_batchnorm"
  type: "BatchNorm"
  batch_norm_param {
    use_global_stats: true
    moving_average_fraction: 0.9
    eps: 0.001
  }
}
graph_node
  bottom: "res_2_block2_conv_sep_batchnorm"
  top: "res_2_block2_conv_sep_batchnorm"
  name: "res_2_block2_conv_sep_batchnorm_scale"
  type: "Scale"
  scale_param { bias_term: true }
}

graph_node
  bottom: "res_2_block2_conv_sep_batchnorm"
  top: "res_2_block2_conv_sep_relu"
  name: "res_2_block2_conv_sep_relu"
  type: "PReLU"
}

graph_node
	bottom: "res_2_block2_conv_sep_relu"
	top: "res_2_block2_conv_dw_conv2d"
	name: "res_2_block2_conv_dw_conv2d"
	type: "ConvolutionDepthwise"
	convolution_param {
		num_output: 64
		kernel_size: 3
		pad: 1
		group: 64
            engine:CAFFE
		stride: 1
		bias_term: false
	}
}

graph_node
  bottom: "res_2_block2_conv_dw_conv2d"
  top: "res_2_block2_conv_dw_batchnorm"
  name: "res_2_block2_conv_dw_batchnorm"
  type: "BatchNorm"
  batch_norm_param {
    use_global_stats: true
    moving_average_fraction: 0.9
    eps: 0.001
  }
}
graph_node
  bottom: "res_2_block2_conv_dw_batchnorm"
  top: "res_2_block2_conv_dw_batchnorm"
  name: "res_2_block2_conv_dw_batchnorm_scale"
  type: "Scale"
  scale_param { bias_term: true }
}

graph_node
  bottom: "res_2_block2_conv_dw_batchnorm"
  top: "res_2_block2_conv_dw_relu"
  name: "res_2_block2_conv_dw_relu"
  type: "PReLU"
}

graph_node
	bottom: "res_2_block2_conv_dw_relu"
	top: "res_2_block2_conv_proj_conv2d"
	name: "res_2_block2_conv_proj_conv2d"
	type: "Convolution"
	convolution_param {
		num_output: 64
		kernel_size: 1
		pad: 0
		stride: 1
		bias_term: false
	}
}

graph_node
  bottom: "res_2_block2_conv_proj_conv2d"
  top: "res_2_block2_conv_proj_batchnorm"
  name: "res_2_block2_conv_proj_batchnorm"
  type: "BatchNorm"
  batch_norm_param {
    use_global_stats: true
    moving_average_fraction: 0.9
    eps: 0.001
  }
}
graph_node
  bottom: "res_2_block2_conv_proj_batchnorm"
  top: "res_2_block2_conv_proj_batchnorm"
  name: "res_2_block2_conv_proj_batchnorm_scale"
  type: "Scale"
  scale_param { bias_term: true }
}

graph_node
  name: "_plus2"
  type: "Eltwise"
  bottom: "res_2_block2_conv_proj_batchnorm"
  bottom: "_plus1"
  top: "_plus2"
  eltwise_param { operation: SUM }
}

graph_node
	bottom: "_plus2"
	top: "res_2_block3_conv_sep_conv2d"
	name: "res_2_block3_conv_sep_conv2d"
	type: "Convolution"
	convolution_param {
		num_output: 64
		kernel_size: 1
		pad: 0
		stride: 1
		bias_term: false
	}
}

graph_node
  bottom: "res_2_block3_conv_sep_conv2d"
  top: "res_2_block3_conv_sep_batchnorm"
  name: "res_2_block3_conv_sep_batchnorm"
  type: "BatchNorm"
  batch_norm_param {
    use_global_stats: true
    moving_average_fraction: 0.9
    eps: 0.001
  }
}
graph_node
  bottom: "res_2_block3_conv_sep_batchnorm"
  top: "res_2_block3_conv_sep_batchnorm"
  name: "res_2_block3_conv_sep_batchnorm_scale"
  type: "Scale"
  scale_param { bias_term: true }
}

graph_node
  bottom: "res_2_block3_conv_sep_batchnorm"
  top: "res_2_block3_conv_sep_relu"
  name: "res_2_block3_conv_sep_relu"
  type: "PReLU"
}

graph_node
	bottom: "res_2_block3_conv_sep_relu"
	top: "res_2_block3_conv_dw_conv2d"
	name: "res_2_block3_conv_dw_conv2d"
	type: "ConvolutionDepthwise"
	convolution_param {
		num_output: 64
		kernel_size: 3
		pad: 1
		group: 64
            engine:CAFFE
		stride: 1
		bias_term: false
	}
}

graph_node
  bottom: "res_2_block3_conv_dw_conv2d"
  top: "res_2_block3_conv_dw_batchnorm"
  name: "res_2_block3_conv_dw_batchnorm"
  type: "BatchNorm"
  batch_norm_param {
    use_global_stats: true
    moving_average_fraction: 0.9
    eps: 0.001
  }
}
graph_node
  bottom: "res_2_block3_conv_dw_batchnorm"
  top: "res_2_block3_conv_dw_batchnorm"
  name: "res_2_block3_conv_dw_batchnorm_scale"
  type: "Scale"
  scale_param { bias_term: true }
}

graph_node
  bottom: "res_2_block3_conv_dw_batchnorm"
  top: "res_2_block3_conv_dw_relu"
  name: "res_2_block3_conv_dw_relu"
  type: "PReLU"
}

graph_node
	bottom: "res_2_block3_conv_dw_relu"
	top: "res_2_block3_conv_proj_conv2d"
	name: "res_2_block3_conv_proj_conv2d"
	type: "Convolution"
	convolution_param {
		num_output: 64
		kernel_size: 1
		pad: 0
		stride: 1
		bias_term: false
	}
}

graph_node
  bottom: "res_2_block3_conv_proj_conv2d"
  top: "res_2_block3_conv_proj_batchnorm"
  name: "res_2_block3_conv_proj_batchnorm"
  type: "BatchNorm"
  batch_norm_param {
    use_global_stats: true
    moving_average_fraction: 0.9
    eps: 0.001
  }
}
graph_node
  bottom: "res_2_block3_conv_proj_batchnorm"
  top: "res_2_block3_conv_proj_batchnorm"
  name: "res_2_block3_conv_proj_batchnorm_scale"
  type: "Scale"
  scale_param { bias_term: true }
}

graph_node
  name: "_plus3"
  type: "Eltwise"
  bottom: "res_2_block3_conv_proj_batchnorm"
  bottom: "_plus2"
  top: "_plus3"
  eltwise_param { operation: SUM }
}

graph_node
	bottom: "_plus3"
	top: "dconv_23_conv_sep_conv2d"
	name: "dconv_23_conv_sep_conv2d"
	type: "Convolution"
	convolution_param {
		num_output: 128
		kernel_size: 1
		pad: 0
		stride: 1
		bias_term: false
	}
}

graph_node
  bottom: "dconv_23_conv_sep_conv2d"
  top: "dconv_23_conv_sep_batchnorm"
  name: "dconv_23_conv_sep_batchnorm"
  type: "BatchNorm"
  batch_norm_param {
    use_global_stats: true
    moving_average_fraction: 0.9
    eps: 0.001
  }
}
graph_node
  bottom: "dconv_23_conv_sep_batchnorm"
  top: "dconv_23_conv_sep_batchnorm"
  name: "dconv_23_conv_sep_batchnorm_scale"
  type: "Scale"
  scale_param { bias_term: true }
}

graph_node
  bottom: "dconv_23_conv_sep_batchnorm"
  top: "dconv_23_conv_sep_relu"
  name: "dconv_23_conv_sep_relu"
  type: "PReLU"
}

graph_node
	bottom: "dconv_23_conv_sep_relu"
	top: "dconv_23_conv_dw_conv2d"
	name: "dconv_23_conv_dw_conv2d"
	type: "ConvolutionDepthwise"
	convolution_param {
		num_output: 128
		kernel_size: 3
		pad: 1
		group: 128
            engine:CAFFE
		stride: 2
		bias_term: false
	}
}

graph_node
  bottom: "dconv_23_conv_dw_conv2d"
  top: "dconv_23_conv_dw_batchnorm"
  name: "dconv_23_conv_dw_batchnorm"
  type: "BatchNorm"
  batch_norm_param {
    use_global_stats: true
    moving_average_fraction: 0.9
    eps: 0.001
  }
}
graph_node
  bottom: "dconv_23_conv_dw_batchnorm"
  top: "dconv_23_conv_dw_batchnorm"
  name: "dconv_23_conv_dw_batchnorm_scale"
  type: "Scale"
  scale_param { bias_term: true }
}

graph_node
  bottom: "dconv_23_conv_dw_batchnorm"
  top: "dconv_23_conv_dw_relu"
  name: "dconv_23_conv_dw_relu"
  type: "PReLU"
}

graph_node
	bottom: "dconv_23_conv_dw_relu"
	top: "dconv_23_conv_proj_conv2d"
	name: "dconv_23_conv_proj_conv2d"
	type: "Convolution"
	convolution_param {
		num_output: 128
		kernel_size: 1
		pad: 0
		stride: 1
		bias_term: false
	}
}

graph_node
  bottom: "dconv_23_conv_proj_conv2d"
  top: "dconv_23_conv_proj_batchnorm"
  name: "dconv_23_conv_proj_batchnorm"
  type: "BatchNorm"
  batch_norm_param {
    use_global_stats: true
    moving_average_fraction: 0.9
    eps: 0.001
  }
}
graph_node
  bottom: "dconv_23_conv_proj_batchnorm"
  top: "dconv_23_conv_proj_batchnorm"
  name: "dconv_23_conv_proj_batchnorm_scale"
  type: "Scale"
  scale_param { bias_term: true }
}

graph_node
	bottom: "dconv_23_conv_proj_batchnorm"
	top: "res_3_block0_conv_sep_conv2d"
	name: "res_3_block0_conv_sep_conv2d"
	type: "Convolution"
	convolution_param {
		num_output: 128
		kernel_size: 1
		pad: 0
		stride: 1
		bias_term: false
	}
}

graph_node
  bottom: "res_3_block0_conv_sep_conv2d"
  top: "res_3_block0_conv_sep_batchnorm"
  name: "res_3_block0_conv_sep_batchnorm"
  type: "BatchNorm"
  batch_norm_param {
    use_global_stats: true
    moving_average_fraction: 0.9
    eps: 0.001
  }
}
graph_node
  bottom: "res_3_block0_conv_sep_batchnorm"
  top: "res_3_block0_conv_sep_batchnorm"
  name: "res_3_block0_conv_sep_batchnorm_scale"
  type: "Scale"
  scale_param { bias_term: true }
}

graph_node
  bottom: "res_3_block0_conv_sep_batchnorm"
  top: "res_3_block0_conv_sep_relu"
  name: "res_3_block0_conv_sep_relu"
  type: "PReLU"
}

graph_node
	bottom: "res_3_block0_conv_sep_relu"
	top: "res_3_block0_conv_dw_conv2d"
	name: "res_3_block0_conv_dw_conv2d"
	type: "ConvolutionDepthwise"
	convolution_param {
		num_output: 128
		kernel_size: 3
		pad: 1
		group: 128
            engine:CAFFE
		stride: 1
		bias_term: false
	}
}

graph_node
  bottom: "res_3_block0_conv_dw_conv2d"
  top: "res_3_block0_conv_dw_batchnorm"
  name: "res_3_block0_conv_dw_batchnorm"
  type: "BatchNorm"
  batch_norm_param {
    use_global_stats: true
    moving_average_fraction: 0.9
    eps: 0.001
  }
}
graph_node
  bottom: "res_3_block0_conv_dw_batchnorm"
  top: "res_3_block0_conv_dw_batchnorm"
  name: "res_3_block0_conv_dw_batchnorm_scale"
  type: "Scale"
  scale_param { bias_term: true }
}

graph_node
  bottom: "res_3_block0_conv_dw_batchnorm"
  top: "res_3_block0_conv_dw_relu"
  name: "res_3_block0_conv_dw_relu"
  type: "PReLU"
}

graph_node
	bottom: "res_3_block0_conv_dw_relu"
	top: "res_3_block0_conv_proj_conv2d"
	name: "res_3_block0_conv_proj_conv2d"
	type: "Convolution"
	convolution_param {
		num_output: 128
		kernel_size: 1
		pad: 0
		stride: 1
		bias_term: false
	}
}

graph_node
  bottom: "res_3_block0_conv_proj_conv2d"
  top: "res_3_block0_conv_proj_batchnorm"
  name: "res_3_block0_conv_proj_batchnorm"
  type: "BatchNorm"
  batch_norm_param {
    use_global_stats: true
    moving_average_fraction: 0.9
    eps: 0.001
  }
}
graph_node
  bottom: "res_3_block0_conv_proj_batchnorm"
  top: "res_3_block0_conv_proj_batchnorm"
  name: "res_3_block0_conv_proj_batchnorm_scale"
  type: "Scale"
  scale_param { bias_term: true }
}

graph_node
  name: "_plus4"
  type: "Eltwise"
  bottom: "res_3_block0_conv_proj_batchnorm"
  bottom: "dconv_23_conv_proj_batchnorm"
  top: "_plus4"
  eltwise_param { operation: SUM }
}

graph_node
	bottom: "_plus4"
	top: "res_3_block1_conv_sep_conv2d"
	name: "res_3_block1_conv_sep_conv2d"
	type: "Convolution"
	convolution_param {
		num_output: 128
		kernel_size: 1
		pad: 0
		stride: 1
		bias_term: false
	}
}

graph_node
  bottom: "res_3_block1_conv_sep_conv2d"
  top: "res_3_block1_conv_sep_batchnorm"
  name: "res_3_block1_conv_sep_batchnorm"
  type: "BatchNorm"
  batch_norm_param {
    use_global_stats: true
    moving_average_fraction: 0.9
    eps: 0.001
  }
}
graph_node
  bottom: "res_3_block1_conv_sep_batchnorm"
  top: "res_3_block1_conv_sep_batchnorm"
  name: "res_3_block1_conv_sep_batchnorm_scale"
  type: "Scale"
  scale_param { bias_term: true }
}

graph_node
  bottom: "res_3_block1_conv_sep_batchnorm"
  top: "res_3_block1_conv_sep_relu"
  name: "res_3_block1_conv_sep_relu"
  type: "PReLU"
}

graph_node
	bottom: "res_3_block1_conv_sep_relu"
	top: "res_3_block1_conv_dw_conv2d"
	name: "res_3_block1_conv_dw_conv2d"
	type: "ConvolutionDepthwise"
	convolution_param {
		num_output: 128
		kernel_size: 3
		pad: 1
		group: 128
            engine:CAFFE
		stride: 1
		bias_term: false
	}
}

graph_node
  bottom: "res_3_block1_conv_dw_conv2d"
  top: "res_3_block1_conv_dw_batchnorm"
  name: "res_3_block1_conv_dw_batchnorm"
  type: "BatchNorm"
  batch_norm_param {
    use_global_stats: true
    moving_average_fraction: 0.9
    eps: 0.001
  }
}
graph_node
  bottom: "res_3_block1_conv_dw_batchnorm"
  top: "res_3_block1_conv_dw_batchnorm"
  name: "res_3_block1_conv_dw_batchnorm_scale"
  type: "Scale"
  scale_param { bias_term: true }
}

graph_node
  bottom: "res_3_block1_conv_dw_batchnorm"
  top: "res_3_block1_conv_dw_relu"
  name: "res_3_block1_conv_dw_relu"
  type: "PReLU"
}

graph_node
	bottom: "res_3_block1_conv_dw_relu"
	top: "res_3_block1_conv_proj_conv2d"
	name: "res_3_block1_conv_proj_conv2d"
	type: "Convolution"
	convolution_param {
		num_output: 128
		kernel_size: 1
		pad: 0
		stride: 1
		bias_term: false
	}
}

graph_node
  bottom: "res_3_block1_conv_proj_conv2d"
  top: "res_3_block1_conv_proj_batchnorm"
  name: "res_3_block1_conv_proj_batchnorm"
  type: "BatchNorm"
  batch_norm_param {
    use_global_stats: true
    moving_average_fraction: 0.9
    eps: 0.001
  }
}
graph_node
  bottom: "res_3_block1_conv_proj_batchnorm"
  top: "res_3_block1_conv_proj_batchnorm"
  name: "res_3_block1_conv_proj_batchnorm_scale"
  type: "Scale"
  scale_param { bias_term: true }
}

graph_node
  name: "_plus5"
  type: "Eltwise"
  bottom: "res_3_block1_conv_proj_batchnorm"
  bottom: "_plus4"
  top: "_plus5"
  eltwise_param { operation: SUM }
}

graph_node
	bottom: "_plus5"
	top: "res_3_block2_conv_sep_conv2d"
	name: "res_3_block2_conv_sep_conv2d"
	type: "Convolution"
	convolution_param {
		num_output: 128
		kernel_size: 1
		pad: 0
		stride: 1
		bias_term: false
	}
}

graph_node
  bottom: "res_3_block2_conv_sep_conv2d"
  top: "res_3_block2_conv_sep_batchnorm"
  name: "res_3_block2_conv_sep_batchnorm"
  type: "BatchNorm"
  batch_norm_param {
    use_global_stats: true
    moving_average_fraction: 0.9
    eps: 0.001
  }
}
graph_node
  bottom: "res_3_block2_conv_sep_batchnorm"
  top: "res_3_block2_conv_sep_batchnorm"
  name: "res_3_block2_conv_sep_batchnorm_scale"
  type: "Scale"
  scale_param { bias_term: true }
}

graph_node
  bottom: "res_3_block2_conv_sep_batchnorm"
  top: "res_3_block2_conv_sep_relu"
  name: "res_3_block2_conv_sep_relu"
  type: "PReLU"
}

graph_node
	bottom: "res_3_block2_conv_sep_relu"
	top: "res_3_block2_conv_dw_conv2d"
	name: "res_3_block2_conv_dw_conv2d"
	type: "ConvolutionDepthwise"
	convolution_param {
		num_output: 128
		kernel_size: 3
		pad: 1
		group: 128
            engine:CAFFE
		stride: 1
		bias_term: false
	}
}

graph_node
  bottom: "res_3_block2_conv_dw_conv2d"
  top: "res_3_block2_conv_dw_batchnorm"
  name: "res_3_block2_conv_dw_batchnorm"
  type: "BatchNorm"
  batch_norm_param {
    use_global_stats: true
    moving_average_fraction: 0.9
    eps: 0.001
  }
}
graph_node
  bottom: "res_3_block2_conv_dw_batchnorm"
  top: "res_3_block2_conv_dw_batchnorm"
  name: "res_3_block2_conv_dw_batchnorm_scale"
  type: "Scale"
  scale_param { bias_term: true }
}

graph_node
  bottom: "res_3_block2_conv_dw_batchnorm"
  top: "res_3_block2_conv_dw_relu"
  name: "res_3_block2_conv_dw_relu"
  type: "PReLU"
}

graph_node
	bottom: "res_3_block2_conv_dw_relu"
	top: "res_3_block2_conv_proj_conv2d"
	name: "res_3_block2_conv_proj_conv2d"
	type: "Convolution"
	convolution_param {
		num_output: 128
		kernel_size: 1
		pad: 0
		stride: 1
		bias_term: false
	}
}

graph_node
  bottom: "res_3_block2_conv_proj_conv2d"
  top: "res_3_block2_conv_proj_batchnorm"
  name: "res_3_block2_conv_proj_batchnorm"
  type: "BatchNorm"
  batch_norm_param {
    use_global_stats: true
    moving_average_fraction: 0.9
    eps: 0.001
  }
}
graph_node
  bottom: "res_3_block2_conv_proj_batchnorm"
  top: "res_3_block2_conv_proj_batchnorm"
  name: "res_3_block2_conv_proj_batchnorm_scale"
  type: "Scale"
  scale_param { bias_term: true }
}

graph_node
  name: "_plus6"
  type: "Eltwise"
  bottom: "res_3_block2_conv_proj_batchnorm"
  bottom: "_plus5"
  top: "_plus6"
  eltwise_param { operation: SUM }
}

graph_node
	bottom: "_plus6"
	top: "res_3_block3_conv_sep_conv2d"
	name: "res_3_block3_conv_sep_conv2d"
	type: "Convolution"
	convolution_param {
		num_output: 128
		kernel_size: 1
		pad: 0
		stride: 1
		bias_term: false
	}
}

graph_node
  bottom: "res_3_block3_conv_sep_conv2d"
  top: "res_3_block3_conv_sep_batchnorm"
  name: "res_3_block3_conv_sep_batchnorm"
  type: "BatchNorm"
  batch_norm_param {
    use_global_stats: true
    moving_average_fraction: 0.9
    eps: 0.001
  }
}
graph_node
  bottom: "res_3_block3_conv_sep_batchnorm"
  top: "res_3_block3_conv_sep_batchnorm"
  name: "res_3_block3_conv_sep_batchnorm_scale"
  type: "Scale"
  scale_param { bias_term: true }
}

graph_node
  bottom: "res_3_block3_conv_sep_batchnorm"
  top: "res_3_block3_conv_sep_relu"
  name: "res_3_block3_conv_sep_relu"
  type: "PReLU"
}

graph_node
	bottom: "res_3_block3_conv_sep_relu"
	top: "res_3_block3_conv_dw_conv2d"
	name: "res_3_block3_conv_dw_conv2d"
	type: "ConvolutionDepthwise"
	convolution_param {
		num_output: 128
		kernel_size: 3
		pad: 1
		group: 128
            engine:CAFFE
		stride: 1
		bias_term: false
	}
}

graph_node
  bottom: "res_3_block3_conv_dw_conv2d"
  top: "res_3_block3_conv_dw_batchnorm"
  name: "res_3_block3_conv_dw_batchnorm"
  type: "BatchNorm"
  batch_norm_param {
    use_global_stats: true
    moving_average_fraction: 0.9
    eps: 0.001
  }
}
graph_node
  bottom: "res_3_block3_conv_dw_batchnorm"
  top: "res_3_block3_conv_dw_batchnorm"
  name: "res_3_block3_conv_dw_batchnorm_scale"
  type: "Scale"
  scale_param { bias_term: true }
}

graph_node
  bottom: "res_3_block3_conv_dw_batchnorm"
  top: "res_3_block3_conv_dw_relu"
  name: "res_3_block3_conv_dw_relu"
  type: "PReLU"
}

graph_node
	bottom: "res_3_block3_conv_dw_relu"
	top: "res_3_block3_conv_proj_conv2d"
	name: "res_3_block3_conv_proj_conv2d"
	type: "Convolution"
	convolution_param {
		num_output: 128
		kernel_size: 1
		pad: 0
		stride: 1
		bias_term: false
	}
}

graph_node
  bottom: "res_3_block3_conv_proj_conv2d"
  top: "res_3_block3_conv_proj_batchnorm"
  name: "res_3_block3_conv_proj_batchnorm"
  type: "BatchNorm"
  batch_norm_param {
    use_global_stats: true
    moving_average_fraction: 0.9
    eps: 0.001
  }
}
graph_node
  bottom: "res_3_block3_conv_proj_batchnorm"
  top: "res_3_block3_conv_proj_batchnorm"
  name: "res_3_block3_conv_proj_batchnorm_scale"
  type: "Scale"
  scale_param { bias_term: true }
}

graph_node
  name: "_plus7"
  type: "Eltwise"
  bottom: "res_3_block3_conv_proj_batchnorm"
  bottom: "_plus6"
  top: "_plus7"
  eltwise_param { operation: SUM }
}

graph_node
	bottom: "_plus7"
	top: "res_3_block4_conv_sep_conv2d"
	name: "res_3_block4_conv_sep_conv2d"
	type: "Convolution"
	convolution_param {
		num_output: 128
		kernel_size: 1
		pad: 0
		stride: 1
		bias_term: false
	}
}

graph_node
  bottom: "res_3_block4_conv_sep_conv2d"
  top: "res_3_block4_conv_sep_batchnorm"
  name: "res_3_block4_conv_sep_batchnorm"
  type: "BatchNorm"
  batch_norm_param {
    use_global_stats: true
    moving_average_fraction: 0.9
    eps: 0.001
  }
}
graph_node
  bottom: "res_3_block4_conv_sep_batchnorm"
  top: "res_3_block4_conv_sep_batchnorm"
  name: "res_3_block4_conv_sep_batchnorm_scale"
  type: "Scale"
  scale_param { bias_term: true }
}

graph_node
  bottom: "res_3_block4_conv_sep_batchnorm"
  top: "res_3_block4_conv_sep_relu"
  name: "res_3_block4_conv_sep_relu"
  type: "PReLU"
}

graph_node
	bottom: "res_3_block4_conv_sep_relu"
	top: "res_3_block4_conv_dw_conv2d"
	name: "res_3_block4_conv_dw_conv2d"
	type: "ConvolutionDepthwise"
	convolution_param {
		num_output: 128
		kernel_size: 3
		pad: 1
		group: 128
            engine:CAFFE
		stride: 1
		bias_term: false
	}
}

graph_node
  bottom: "res_3_block4_conv_dw_conv2d"
  top: "res_3_block4_conv_dw_batchnorm"
  name: "res_3_block4_conv_dw_batchnorm"
  type: "BatchNorm"
  batch_norm_param {
    use_global_stats: true
    moving_average_fraction: 0.9
    eps: 0.001
  }
}
graph_node
  bottom: "res_3_block4_conv_dw_batchnorm"
  top: "res_3_block4_conv_dw_batchnorm"
  name: "res_3_block4_conv_dw_batchnorm_scale"
  type: "Scale"
  scale_param { bias_term: true }
}

graph_node
  bottom: "res_3_block4_conv_dw_batchnorm"
  top: "res_3_block4_conv_dw_relu"
  name: "res_3_block4_conv_dw_relu"
  type: "PReLU"
}

graph_node
	bottom: "res_3_block4_conv_dw_relu"
	top: "res_3_block4_conv_proj_conv2d"
	name: "res_3_block4_conv_proj_conv2d"
	type: "Convolution"
	convolution_param {
		num_output: 128
		kernel_size: 1
		pad: 0
		stride: 1
		bias_term: false
	}
}

graph_node
  bottom: "res_3_block4_conv_proj_conv2d"
  top: "res_3_block4_conv_proj_batchnorm"
  name: "res_3_block4_conv_proj_batchnorm"
  type: "BatchNorm"
  batch_norm_param {
    use_global_stats: true
    moving_average_fraction: 0.9
    eps: 0.001
  }
}
graph_node
  bottom: "res_3_block4_conv_proj_batchnorm"
  top: "res_3_block4_conv_proj_batchnorm"
  name: "res_3_block4_conv_proj_batchnorm_scale"
  type: "Scale"
  scale_param { bias_term: true }
}

graph_node
  name: "_plus8"
  type: "Eltwise"
  bottom: "res_3_block4_conv_proj_batchnorm"
  bottom: "_plus7"
  top: "_plus8"
  eltwise_param { operation: SUM }
}

graph_node
	bottom: "_plus8"
	top: "res_3_block5_conv_sep_conv2d"
	name: "res_3_block5_conv_sep_conv2d"
	type: "Convolution"
	convolution_param {
		num_output: 128
		kernel_size: 1
		pad: 0
		stride: 1
		bias_term: false
	}
}

graph_node
  bottom: "res_3_block5_conv_sep_conv2d"
  top: "res_3_block5_conv_sep_batchnorm"
  name: "res_3_block5_conv_sep_batchnorm"
  type: "BatchNorm"
  batch_norm_param {
    use_global_stats: true
    moving_average_fraction: 0.9
    eps: 0.001
  }
}
graph_node
  bottom: "res_3_block5_conv_sep_batchnorm"
  top: "res_3_block5_conv_sep_batchnorm"
  name: "res_3_block5_conv_sep_batchnorm_scale"
  type: "Scale"
  scale_param { bias_term: true }
}

graph_node
  bottom: "res_3_block5_conv_sep_batchnorm"
  top: "res_3_block5_conv_sep_relu"
  name: "res_3_block5_conv_sep_relu"
  type: "PReLU"
}

graph_node
	bottom: "res_3_block5_conv_sep_relu"
	top: "res_3_block5_conv_dw_conv2d"
	name: "res_3_block5_conv_dw_conv2d"
	type: "ConvolutionDepthwise"
	convolution_param {
		num_output: 128
		kernel_size: 3
		pad: 1
		group: 128
            engine:CAFFE
		stride: 1
		bias_term: false
	}
}

graph_node
  bottom: "res_3_block5_conv_dw_conv2d"
  top: "res_3_block5_conv_dw_batchnorm"
  name: "res_3_block5_conv_dw_batchnorm"
  type: "BatchNorm"
  batch_norm_param {
    use_global_stats: true
    moving_average_fraction: 0.9
    eps: 0.001
  }
}
graph_node
  bottom: "res_3_block5_conv_dw_batchnorm"
  top: "res_3_block5_conv_dw_batchnorm"
  name: "res_3_block5_conv_dw_batchnorm_scale"
  type: "Scale"
  scale_param { bias_term: true }
}

graph_node
  bottom: "res_3_block5_conv_dw_batchnorm"
  top: "res_3_block5_conv_dw_relu"
  name: "res_3_block5_conv_dw_relu"
  type: "PReLU"
}

graph_node
	bottom: "res_3_block5_conv_dw_relu"
	top: "res_3_block5_conv_proj_conv2d"
	name: "res_3_block5_conv_proj_conv2d"
	type: "Convolution"
	convolution_param {
		num_output: 128
		kernel_size: 1
		pad: 0
		stride: 1
		bias_term: false
	}
}

graph_node
  bottom: "res_3_block5_conv_proj_conv2d"
  top: "res_3_block5_conv_proj_batchnorm"
  name: "res_3_block5_conv_proj_batchnorm"
  type: "BatchNorm"
  batch_norm_param {
    use_global_stats: true
    moving_average_fraction: 0.9
    eps: 0.001
  }
}
graph_node
  bottom: "res_3_block5_conv_proj_batchnorm"
  top: "res_3_block5_conv_proj_batchnorm"
  name: "res_3_block5_conv_proj_batchnorm_scale"
  type: "Scale"
  scale_param { bias_term: true }
}

graph_node
  name: "_plus9"
  type: "Eltwise"
  bottom: "res_3_block5_conv_proj_batchnorm"
  bottom: "_plus8"
  top: "_plus9"
  eltwise_param { operation: SUM }
}

graph_node
	bottom: "_plus9"
	top: "res_3_block6_conv_sep_conv2d"
	name: "res_3_block6_conv_sep_conv2d"
	type: "Convolution"
	convolution_param {
		num_output: 128
		kernel_size: 1
		pad: 0
		stride: 1
		bias_term: false
	}
}

graph_node
  bottom: "res_3_block6_conv_sep_conv2d"
  top: "res_3_block6_conv_sep_batchnorm"
  name: "res_3_block6_conv_sep_batchnorm"
  type: "BatchNorm"
  batch_norm_param {
    use_global_stats: true
    moving_average_fraction: 0.9
    eps: 0.001
  }
}
graph_node
  bottom: "res_3_block6_conv_sep_batchnorm"
  top: "res_3_block6_conv_sep_batchnorm"
  name: "res_3_block6_conv_sep_batchnorm_scale"
  type: "Scale"
  scale_param { bias_term: true }
}

graph_node
  bottom: "res_3_block6_conv_sep_batchnorm"
  top: "res_3_block6_conv_sep_relu"
  name: "res_3_block6_conv_sep_relu"
  type: "PReLU"
}

graph_node
	bottom: "res_3_block6_conv_sep_relu"
	top: "res_3_block6_conv_dw_conv2d"
	name: "res_3_block6_conv_dw_conv2d"
	type: "ConvolutionDepthwise"
	convolution_param {
		num_output: 128
		kernel_size: 3
		pad: 1
		group: 128
            engine:CAFFE
		stride: 1
		bias_term: false
	}
}

graph_node
  bottom: "res_3_block6_conv_dw_conv2d"
  top: "res_3_block6_conv_dw_batchnorm"
  name: "res_3_block6_conv_dw_batchnorm"
  type: "BatchNorm"
  batch_norm_param {
    use_global_stats: true
    moving_average_fraction: 0.9
    eps: 0.001
  }
}
graph_node
  bottom: "res_3_block6_conv_dw_batchnorm"
  top: "res_3_block6_conv_dw_batchnorm"
  name: "res_3_block6_conv_dw_batchnorm_scale"
  type: "Scale"
  scale_param { bias_term: true }
}

graph_node
  bottom: "res_3_block6_conv_dw_batchnorm"
  top: "res_3_block6_conv_dw_relu"
  name: "res_3_block6_conv_dw_relu"
  type: "PReLU"
}

graph_node
	bottom: "res_3_block6_conv_dw_relu"
	top: "res_3_block6_conv_proj_conv2d"
	name: "res_3_block6_conv_proj_conv2d"
	type: "Convolution"
	convolution_param {
		num_output: 128
		kernel_size: 1
		pad: 0
		stride: 1
		bias_term: false
	}
}

graph_node
  bottom: "res_3_block6_conv_proj_conv2d"
  top: "res_3_block6_conv_proj_batchnorm"
  name: "res_3_block6_conv_proj_batchnorm"
  type: "BatchNorm"
  batch_norm_param {
    use_global_stats: true
    moving_average_fraction: 0.9
    eps: 0.001
  }
}
graph_node
  bottom: "res_3_block6_conv_proj_batchnorm"
  top: "res_3_block6_conv_proj_batchnorm"
  name: "res_3_block6_conv_proj_batchnorm_scale"
  type: "Scale"
  scale_param { bias_term: true }
}

graph_node
  name: "_plus10"
  type: "Eltwise"
  bottom: "res_3_block6_conv_proj_batchnorm"
  bottom: "_plus9"
  top: "_plus10"
  eltwise_param { operation: SUM }
}

graph_node
	bottom: "_plus10"
	top: "res_3_block7_conv_sep_conv2d"
	name: "res_3_block7_conv_sep_conv2d"
	type: "Convolution"
	convolution_param {
		num_output: 128
		kernel_size: 1
		pad: 0
		stride: 1
		bias_term: false
	}
}

graph_node
  bottom: "res_3_block7_conv_sep_conv2d"
  top: "res_3_block7_conv_sep_batchnorm"
  name: "res_3_block7_conv_sep_batchnorm"
  type: "BatchNorm"
  batch_norm_param {
    use_global_stats: true
    moving_average_fraction: 0.9
    eps: 0.001
  }
}
graph_node
  bottom: "res_3_block7_conv_sep_batchnorm"
  top: "res_3_block7_conv_sep_batchnorm"
  name: "res_3_block7_conv_sep_batchnorm_scale"
  type: "Scale"
  scale_param { bias_term: true }
}

graph_node
  bottom: "res_3_block7_conv_sep_batchnorm"
  top: "res_3_block7_conv_sep_relu"
  name: "res_3_block7_conv_sep_relu"
  type: "PReLU"
}

graph_node
	bottom: "res_3_block7_conv_sep_relu"
	top: "res_3_block7_conv_dw_conv2d"
	name: "res_3_block7_conv_dw_conv2d"
	type: "ConvolutionDepthwise"
	convolution_param {
		num_output: 128
		kernel_size: 3
		pad: 1
		group: 128
            engine:CAFFE
		stride: 1
		bias_term: false
	}
}

graph_node
  bottom: "res_3_block7_conv_dw_conv2d"
  top: "res_3_block7_conv_dw_batchnorm"
  name: "res_3_block7_conv_dw_batchnorm"
  type: "BatchNorm"
  batch_norm_param {
    use_global_stats: true
    moving_average_fraction: 0.9
    eps: 0.001
  }
}
graph_node
  bottom: "res_3_block7_conv_dw_batchnorm"
  top: "res_3_block7_conv_dw_batchnorm"
  name: "res_3_block7_conv_dw_batchnorm_scale"
  type: "Scale"
  scale_param { bias_term: true }
}

graph_node
  bottom: "res_3_block7_conv_dw_batchnorm"
  top: "res_3_block7_conv_dw_relu"
  name: "res_3_block7_conv_dw_relu"
  type: "PReLU"
}

graph_node
	bottom: "res_3_block7_conv_dw_relu"
	top: "res_3_block7_conv_proj_conv2d"
	name: "res_3_block7_conv_proj_conv2d"
	type: "Convolution"
	convolution_param {
		num_output: 128
		kernel_size: 1
		pad: 0
		stride: 1
		bias_term: false
	}
}

graph_node
  bottom: "res_3_block7_conv_proj_conv2d"
  top: "res_3_block7_conv_proj_batchnorm"
  name: "res_3_block7_conv_proj_batchnorm"
  type: "BatchNorm"
  batch_norm_param {
    use_global_stats: true
    moving_average_fraction: 0.9
    eps: 0.001
  }
}
graph_node
  bottom: "res_3_block7_conv_proj_batchnorm"
  top: "res_3_block7_conv_proj_batchnorm"
  name: "res_3_block7_conv_proj_batchnorm_scale"
  type: "Scale"
  scale_param { bias_term: true }
}

graph_node
  name: "_plus11"
  type: "Eltwise"
  bottom: "res_3_block7_conv_proj_batchnorm"
  bottom: "_plus10"
  top: "_plus11"
  eltwise_param { operation: SUM }
}

graph_node
	bottom: "_plus11"
	top: "dconv_34_conv_sep_conv2d"
	name: "dconv_34_conv_sep_conv2d"
	type: "Convolution"
	convolution_param {
		num_output: 256
		kernel_size: 1
		pad: 0
		stride: 1
		bias_term: false
	}
}

graph_node
  bottom: "dconv_34_conv_sep_conv2d"
  top: "dconv_34_conv_sep_batchnorm"
  name: "dconv_34_conv_sep_batchnorm"
  type: "BatchNorm"
  batch_norm_param {
    use_global_stats: true
    moving_average_fraction: 0.9
    eps: 0.001
  }
}
graph_node
  bottom: "dconv_34_conv_sep_batchnorm"
  top: "dconv_34_conv_sep_batchnorm"
  name: "dconv_34_conv_sep_batchnorm_scale"
  type: "Scale"
  scale_param { bias_term: true }
}

graph_node
  bottom: "dconv_34_conv_sep_batchnorm"
  top: "dconv_34_conv_sep_relu"
  name: "dconv_34_conv_sep_relu"
  type: "PReLU"
}

graph_node
	bottom: "dconv_34_conv_sep_relu"
	top: "dconv_34_conv_dw_conv2d"
	name: "dconv_34_conv_dw_conv2d"
	type: "ConvolutionDepthwise"
	convolution_param {
		num_output: 256
		kernel_size: 3
		pad: 1
		group: 256
            engine:CAFFE
		stride: 2
		bias_term: false
	}
}

graph_node
  bottom: "dconv_34_conv_dw_conv2d"
  top: "dconv_34_conv_dw_batchnorm"
  name: "dconv_34_conv_dw_batchnorm"
  type: "BatchNorm"
  batch_norm_param {
    use_global_stats: true
    moving_average_fraction: 0.9
    eps: 0.001
  }
}
graph_node
  bottom: "dconv_34_conv_dw_batchnorm"
  top: "dconv_34_conv_dw_batchnorm"
  name: "dconv_34_conv_dw_batchnorm_scale"
  type: "Scale"
  scale_param { bias_term: true }
}

graph_node
  bottom: "dconv_34_conv_dw_batchnorm"
  top: "dconv_34_conv_dw_relu"
  name: "dconv_34_conv_dw_relu"
  type: "PReLU"
}

graph_node
	bottom: "dconv_34_conv_dw_relu"
	top: "dconv_34_conv_proj_conv2d"
	name: "dconv_34_conv_proj_conv2d"
	type: "Convolution"
	convolution_param {
		num_output: 256
		kernel_size: 1
		pad: 0
		stride: 1
		bias_term: false
	}
}

graph_node
  bottom: "dconv_34_conv_proj_conv2d"
  top: "dconv_34_conv_proj_batchnorm"
  name: "dconv_34_conv_proj_batchnorm"
  type: "BatchNorm"
  batch_norm_param {
    use_global_stats: true
    moving_average_fraction: 0.9
    eps: 0.001
  }
}
graph_node
  bottom: "dconv_34_conv_proj_batchnorm"
  top: "dconv_34_conv_proj_batchnorm"
  name: "dconv_34_conv_proj_batchnorm_scale"
  type: "Scale"
  scale_param { bias_term: true }
}

graph_node
	bottom: "dconv_34_conv_proj_batchnorm"
	top: "res_4_block0_conv_sep_conv2d"
	name: "res_4_block0_conv_sep_conv2d"
	type: "Convolution"
	convolution_param {
		num_output: 256
		kernel_size: 1
		pad: 0
		stride: 1
		bias_term: false
	}
}

graph_node
  bottom: "res_4_block0_conv_sep_conv2d"
  top: "res_4_block0_conv_sep_batchnorm"
  name: "res_4_block0_conv_sep_batchnorm"
  type: "BatchNorm"
  batch_norm_param {
    use_global_stats: true
    moving_average_fraction: 0.9
    eps: 0.001
  }
}
graph_node
  bottom: "res_4_block0_conv_sep_batchnorm"
  top: "res_4_block0_conv_sep_batchnorm"
  name: "res_4_block0_conv_sep_batchnorm_scale"
  type: "Scale"
  scale_param { bias_term: true }
}

graph_node
  bottom: "res_4_block0_conv_sep_batchnorm"
  top: "res_4_block0_conv_sep_relu"
  name: "res_4_block0_conv_sep_relu"
  type: "PReLU"
}

graph_node
	bottom: "res_4_block0_conv_sep_relu"
	top: "res_4_block0_conv_dw_conv2d"
	name: "res_4_block0_conv_dw_conv2d"
	type: "ConvolutionDepthwise"
	convolution_param {
		num_output: 256
		kernel_size: 3
		pad: 1
		group: 256
            engine:CAFFE
		stride: 1
		bias_term: false
	}
}

graph_node
  bottom: "res_4_block0_conv_dw_conv2d"
  top: "res_4_block0_conv_dw_batchnorm"
  name: "res_4_block0_conv_dw_batchnorm"
  type: "BatchNorm"
  batch_norm_param {
    use_global_stats: true
    moving_average_fraction: 0.9
    eps: 0.001
  }
}
graph_node
  bottom: "res_4_block0_conv_dw_batchnorm"
  top: "res_4_block0_conv_dw_batchnorm"
  name: "res_4_block0_conv_dw_batchnorm_scale"
  type: "Scale"
  scale_param { bias_term: true }
}

graph_node
  bottom: "res_4_block0_conv_dw_batchnorm"
  top: "res_4_block0_conv_dw_relu"
  name: "res_4_block0_conv_dw_relu"
  type: "PReLU"
}

graph_node
	bottom: "res_4_block0_conv_dw_relu"
	top: "res_4_block0_conv_proj_conv2d"
	name: "res_4_block0_conv_proj_conv2d"
	type: "Convolution"
	convolution_param {
		num_output: 256
		kernel_size: 1
		pad: 0
		stride: 1
		bias_term: false
	}
}

graph_node
  bottom: "res_4_block0_conv_proj_conv2d"
  top: "res_4_block0_conv_proj_batchnorm"
  name: "res_4_block0_conv_proj_batchnorm"
  type: "BatchNorm"
  batch_norm_param {
    use_global_stats: true
    moving_average_fraction: 0.9
    eps: 0.001
  }
}
graph_node
  bottom: "res_4_block0_conv_proj_batchnorm"
  top: "res_4_block0_conv_proj_batchnorm"
  name: "res_4_block0_conv_proj_batchnorm_scale"
  type: "Scale"
  scale_param { bias_term: true }
}

graph_node
  name: "_plus12"
  type: "Eltwise"
  bottom: "res_4_block0_conv_proj_batchnorm"
  bottom: "dconv_34_conv_proj_batchnorm"
  top: "_plus12"
  eltwise_param { operation: SUM }
}

graph_node
	bottom: "_plus12"
	top: "res_4_block1_conv_sep_conv2d"
	name: "res_4_block1_conv_sep_conv2d"
	type: "Convolution"
	convolution_param {
		num_output: 256
		kernel_size: 1
		pad: 0
		stride: 1
		bias_term: false
	}
}

graph_node
  bottom: "res_4_block1_conv_sep_conv2d"
  top: "res_4_block1_conv_sep_batchnorm"
  name: "res_4_block1_conv_sep_batchnorm"
  type: "BatchNorm"
  batch_norm_param {
    use_global_stats: true
    moving_average_fraction: 0.9
    eps: 0.001
  }
}
graph_node
  bottom: "res_4_block1_conv_sep_batchnorm"
  top: "res_4_block1_conv_sep_batchnorm"
  name: "res_4_block1_conv_sep_batchnorm_scale"
  type: "Scale"
  scale_param { bias_term: true }
}

graph_node
  bottom: "res_4_block1_conv_sep_batchnorm"
  top: "res_4_block1_conv_sep_relu"
  name: "res_4_block1_conv_sep_relu"
  type: "PReLU"
}

graph_node
	bottom: "res_4_block1_conv_sep_relu"
	top: "res_4_block1_conv_dw_conv2d"
	name: "res_4_block1_conv_dw_conv2d"
	type: "ConvolutionDepthwise"
	convolution_param {
		num_output: 256
		kernel_size: 3
		pad: 1
		group: 256
            engine:CAFFE
		stride: 1
		bias_term: false
	}
}

graph_node
  bottom: "res_4_block1_conv_dw_conv2d"
  top: "res_4_block1_conv_dw_batchnorm"
  name: "res_4_block1_conv_dw_batchnorm"
  type: "BatchNorm"
  batch_norm_param {
    use_global_stats: true
    moving_average_fraction: 0.9
    eps: 0.001
  }
}
graph_node
  bottom: "res_4_block1_conv_dw_batchnorm"
  top: "res_4_block1_conv_dw_batchnorm"
  name: "res_4_block1_conv_dw_batchnorm_scale"
  type: "Scale"
  scale_param { bias_term: true }
}

graph_node
  bottom: "res_4_block1_conv_dw_batchnorm"
  top: "res_4_block1_conv_dw_relu"
  name: "res_4_block1_conv_dw_relu"
  type: "PReLU"
}

graph_node
	bottom: "res_4_block1_conv_dw_relu"
	top: "res_4_block1_conv_proj_conv2d"
	name: "res_4_block1_conv_proj_conv2d"
	type: "Convolution"
	convolution_param {
		num_output: 256
		kernel_size: 1
		pad: 0
		stride: 1
		bias_term: false
	}
}

graph_node
  bottom: "res_4_block1_conv_proj_conv2d"
  top: "res_4_block1_conv_proj_batchnorm"
  name: "res_4_block1_conv_proj_batchnorm"
  type: "BatchNorm"
  batch_norm_param {
    use_global_stats: true
    moving_average_fraction: 0.9
    eps: 0.001
  }
}
graph_node
  bottom: "res_4_block1_conv_proj_batchnorm"
  top: "res_4_block1_conv_proj_batchnorm"
  name: "res_4_block1_conv_proj_batchnorm_scale"
  type: "Scale"
  scale_param { bias_term: true }
}

graph_node
  name: "_plus13"
  type: "Eltwise"
  bottom: "res_4_block1_conv_proj_batchnorm"
  bottom: "_plus12"
  top: "_plus13"
  eltwise_param { operation: SUM }
}

graph_node
	bottom: "_plus13"
	top: "res_4_block2_conv_sep_conv2d"
	name: "res_4_block2_conv_sep_conv2d"
	type: "Convolution"
	convolution_param {
		num_output: 256
		kernel_size: 1
		pad: 0
		stride: 1
		bias_term: false
	}
}

graph_node
  bottom: "res_4_block2_conv_sep_conv2d"
  top: "res_4_block2_conv_sep_batchnorm"
  name: "res_4_block2_conv_sep_batchnorm"
  type: "BatchNorm"
  batch_norm_param {
    use_global_stats: true
    moving_average_fraction: 0.9
    eps: 0.001
  }
}
graph_node
  bottom: "res_4_block2_conv_sep_batchnorm"
  top: "res_4_block2_conv_sep_batchnorm"
  name: "res_4_block2_conv_sep_batchnorm_scale"
  type: "Scale"
  scale_param { bias_term: true }
}

graph_node
  bottom: "res_4_block2_conv_sep_batchnorm"
  top: "res_4_block2_conv_sep_relu"
  name: "res_4_block2_conv_sep_relu"
  type: "PReLU"
}

graph_node
	bottom: "res_4_block2_conv_sep_relu"
	top: "res_4_block2_conv_dw_conv2d"
	name: "res_4_block2_conv_dw_conv2d"
	type: "ConvolutionDepthwise"
	convolution_param {
		num_output: 256
		kernel_size: 3
		pad: 1
		group: 256
            engine:CAFFE
		stride: 1
		bias_term: false
	}
}

graph_node
  bottom: "res_4_block2_conv_dw_conv2d"
  top: "res_4_block2_conv_dw_batchnorm"
  name: "res_4_block2_conv_dw_batchnorm"
  type: "BatchNorm"
  batch_norm_param {
    use_global_stats: true
    moving_average_fraction: 0.9
    eps: 0.001
  }
}
graph_node
  bottom: "res_4_block2_conv_dw_batchnorm"
  top: "res_4_block2_conv_dw_batchnorm"
  name: "res_4_block2_conv_dw_batchnorm_scale"
  type: "Scale"
  scale_param { bias_term: true }
}

graph_node
  bottom: "res_4_block2_conv_dw_batchnorm"
  top: "res_4_block2_conv_dw_relu"
  name: "res_4_block2_conv_dw_relu"
  type: "PReLU"
}

graph_node
	bottom: "res_4_block2_conv_dw_relu"
	top: "res_4_block2_conv_proj_conv2d"
	name: "res_4_block2_conv_proj_conv2d"
	type: "Convolution"
	convolution_param {
		num_output: 256
		kernel_size: 1
		pad: 0
		stride: 1
		bias_term: false
	}
}

graph_node
  bottom: "res_4_block2_conv_proj_conv2d"
  top: "res_4_block2_conv_proj_batchnorm"
  name: "res_4_block2_conv_proj_batchnorm"
  type: "BatchNorm"
  batch_norm_param {
    use_global_stats: true
    moving_average_fraction: 0.9
    eps: 0.001
  }
}
graph_node
  bottom: "res_4_block2_conv_proj_batchnorm"
  top: "res_4_block2_conv_proj_batchnorm"
  name: "res_4_block2_conv_proj_batchnorm_scale"
  type: "Scale"
  scale_param { bias_term: true }
}

graph_node
  name: "_plus14"
  type: "Eltwise"
  bottom: "res_4_block2_conv_proj_batchnorm"
  bottom: "_plus13"
  top: "_plus14"
  eltwise_param { operation: SUM }
}

graph_node
	bottom: "_plus14"
	top: "res_4_block3_conv_sep_conv2d"
	name: "res_4_block3_conv_sep_conv2d"
	type: "Convolution"
	convolution_param {
		num_output: 256
		kernel_size: 1
		pad: 0
		stride: 1
		bias_term: false
	}
}

graph_node
  bottom: "res_4_block3_conv_sep_conv2d"
  top: "res_4_block3_conv_sep_batchnorm"
  name: "res_4_block3_conv_sep_batchnorm"
  type: "BatchNorm"
  batch_norm_param {
    use_global_stats: true
    moving_average_fraction: 0.9
    eps: 0.001
  }
}
graph_node
  bottom: "res_4_block3_conv_sep_batchnorm"
  top: "res_4_block3_conv_sep_batchnorm"
  name: "res_4_block3_conv_sep_batchnorm_scale"
  type: "Scale"
  scale_param { bias_term: true }
}

graph_node
  bottom: "res_4_block3_conv_sep_batchnorm"
  top: "res_4_block3_conv_sep_relu"
  name: "res_4_block3_conv_sep_relu"
  type: "PReLU"
}

graph_node
	bottom: "res_4_block3_conv_sep_relu"
	top: "res_4_block3_conv_dw_conv2d"
	name: "res_4_block3_conv_dw_conv2d"
	type: "ConvolutionDepthwise"
	convolution_param {
		num_output: 256
		kernel_size: 3
		pad: 1
		group: 256
            engine:CAFFE
		stride: 1
		bias_term: false
	}
}

graph_node
  bottom: "res_4_block3_conv_dw_conv2d"
  top: "res_4_block3_conv_dw_batchnorm"
  name: "res_4_block3_conv_dw_batchnorm"
  type: "BatchNorm"
  batch_norm_param {
    use_global_stats: true
    moving_average_fraction: 0.9
    eps: 0.001
  }
}
graph_node
  bottom: "res_4_block3_conv_dw_batchnorm"
  top: "res_4_block3_conv_dw_batchnorm"
  name: "res_4_block3_conv_dw_batchnorm_scale"
  type: "Scale"
  scale_param { bias_term: true }
}

graph_node
  bottom: "res_4_block3_conv_dw_batchnorm"
  top: "res_4_block3_conv_dw_relu"
  name: "res_4_block3_conv_dw_relu"
  type: "PReLU"
}

graph_node
	bottom: "res_4_block3_conv_dw_relu"
	top: "res_4_block3_conv_proj_conv2d"
	name: "res_4_block3_conv_proj_conv2d"
	type: "Convolution"
	convolution_param {
		num_output: 256
		kernel_size: 1
		pad: 0
		stride: 1
		bias_term: false
	}
}

graph_node
  bottom: "res_4_block3_conv_proj_conv2d"
  top: "res_4_block3_conv_proj_batchnorm"
  name: "res_4_block3_conv_proj_batchnorm"
  type: "BatchNorm"
  batch_norm_param {
    use_global_stats: true
    moving_average_fraction: 0.9
    eps: 0.001
  }
}
graph_node
  bottom: "res_4_block3_conv_proj_batchnorm"
  top: "res_4_block3_conv_proj_batchnorm"
  name: "res_4_block3_conv_proj_batchnorm_scale"
  type: "Scale"
  scale_param { bias_term: true }
}

graph_node
  name: "_plus15"
  type: "Eltwise"
  bottom: "res_4_block3_conv_proj_batchnorm"
  bottom: "_plus14"
  top: "_plus15"
  eltwise_param { operation: SUM }
}

graph_node
	bottom: "_plus15"
	top: "res_4_block4_conv_sep_conv2d"
	name: "res_4_block4_conv_sep_conv2d"
	type: "Convolution"
	convolution_param {
		num_output: 256
		kernel_size: 1
		pad: 0
		stride: 1
		bias_term: false
	}
}

graph_node
  bottom: "res_4_block4_conv_sep_conv2d"
  top: "res_4_block4_conv_sep_batchnorm"
  name: "res_4_block4_conv_sep_batchnorm"
  type: "BatchNorm"
  batch_norm_param {
    use_global_stats: true
    moving_average_fraction: 0.9
    eps: 0.001
  }
}
graph_node
  bottom: "res_4_block4_conv_sep_batchnorm"
  top: "res_4_block4_conv_sep_batchnorm"
  name: "res_4_block4_conv_sep_batchnorm_scale"
  type: "Scale"
  scale_param { bias_term: true }
}

graph_node
  bottom: "res_4_block4_conv_sep_batchnorm"
  top: "res_4_block4_conv_sep_relu"
  name: "res_4_block4_conv_sep_relu"
  type: "PReLU"
}

graph_node
	bottom: "res_4_block4_conv_sep_relu"
	top: "res_4_block4_conv_dw_conv2d"
	name: "res_4_block4_conv_dw_conv2d"
	type: "ConvolutionDepthwise"
	convolution_param {
		num_output: 256
		kernel_size: 3
		pad: 1
		group: 256
            engine:CAFFE
		stride: 1
		bias_term: false
	}
}

graph_node
  bottom: "res_4_block4_conv_dw_conv2d"
  top: "res_4_block4_conv_dw_batchnorm"
  name: "res_4_block4_conv_dw_batchnorm"
  type: "BatchNorm"
  batch_norm_param {
    use_global_stats: true
    moving_average_fraction: 0.9
    eps: 0.001
  }
}
graph_node
  bottom: "res_4_block4_conv_dw_batchnorm"
  top: "res_4_block4_conv_dw_batchnorm"
  name: "res_4_block4_conv_dw_batchnorm_scale"
  type: "Scale"
  scale_param { bias_term: true }
}

graph_node
  bottom: "res_4_block4_conv_dw_batchnorm"
  top: "res_4_block4_conv_dw_relu"
  name: "res_4_block4_conv_dw_relu"
  type: "PReLU"
}

graph_node
	bottom: "res_4_block4_conv_dw_relu"
	top: "res_4_block4_conv_proj_conv2d"
	name: "res_4_block4_conv_proj_conv2d"
	type: "Convolution"
	convolution_param {
		num_output: 256
		kernel_size: 1
		pad: 0
		stride: 1
		bias_term: false
	}
}

graph_node
  bottom: "res_4_block4_conv_proj_conv2d"
  top: "res_4_block4_conv_proj_batchnorm"
  name: "res_4_block4_conv_proj_batchnorm"
  type: "BatchNorm"
  batch_norm_param {
    use_global_stats: true
    moving_average_fraction: 0.9
    eps: 0.001
  }
}
graph_node
  bottom: "res_4_block4_conv_proj_batchnorm"
  top: "res_4_block4_conv_proj_batchnorm"
  name: "res_4_block4_conv_proj_batchnorm_scale"
  type: "Scale"
  scale_param { bias_term: true }
}

graph_node
  name: "_plus16"
  type: "Eltwise"
  bottom: "res_4_block4_conv_proj_batchnorm"
  bottom: "_plus15"
  top: "_plus16"
  eltwise_param { operation: SUM }
}

graph_node
	bottom: "_plus16"
	top: "res_4_block5_conv_sep_conv2d"
	name: "res_4_block5_conv_sep_conv2d"
	type: "Convolution"
	convolution_param {
		num_output: 256
		kernel_size: 1
		pad: 0
		stride: 1
		bias_term: false
	}
}

graph_node
  bottom: "res_4_block5_conv_sep_conv2d"
  top: "res_4_block5_conv_sep_batchnorm"
  name: "res_4_block5_conv_sep_batchnorm"
  type: "BatchNorm"
  batch_norm_param {
    use_global_stats: true
    moving_average_fraction: 0.9
    eps: 0.001
  }
}
graph_node
  bottom: "res_4_block5_conv_sep_batchnorm"
  top: "res_4_block5_conv_sep_batchnorm"
  name: "res_4_block5_conv_sep_batchnorm_scale"
  type: "Scale"
  scale_param { bias_term: true }
}

graph_node
  bottom: "res_4_block5_conv_sep_batchnorm"
  top: "res_4_block5_conv_sep_relu"
  name: "res_4_block5_conv_sep_relu"
  type: "PReLU"
}

graph_node
	bottom: "res_4_block5_conv_sep_relu"
	top: "res_4_block5_conv_dw_conv2d"
	name: "res_4_block5_conv_dw_conv2d"
	type: "ConvolutionDepthwise"
	convolution_param {
		num_output: 256
		kernel_size: 3
		pad: 1
		group: 256
            engine:CAFFE
		stride: 1
		bias_term: false
	}
}

graph_node
  bottom: "res_4_block5_conv_dw_conv2d"
  top: "res_4_block5_conv_dw_batchnorm"
  name: "res_4_block5_conv_dw_batchnorm"
  type: "BatchNorm"
  batch_norm_param {
    use_global_stats: true
    moving_average_fraction: 0.9
    eps: 0.001
  }
}
graph_node
  bottom: "res_4_block5_conv_dw_batchnorm"
  top: "res_4_block5_conv_dw_batchnorm"
  name: "res_4_block5_conv_dw_batchnorm_scale"
  type: "Scale"
  scale_param { bias_term: true }
}

graph_node
  bottom: "res_4_block5_conv_dw_batchnorm"
  top: "res_4_block5_conv_dw_relu"
  name: "res_4_block5_conv_dw_relu"
  type: "PReLU"
}

graph_node
	bottom: "res_4_block5_conv_dw_relu"
	top: "res_4_block5_conv_proj_conv2d"
	name: "res_4_block5_conv_proj_conv2d"
	type: "Convolution"
	convolution_param {
		num_output: 256
		kernel_size: 1
		pad: 0
		stride: 1
		bias_term: false
	}
}

graph_node
  bottom: "res_4_block5_conv_proj_conv2d"
  top: "res_4_block5_conv_proj_batchnorm"
  name: "res_4_block5_conv_proj_batchnorm"
  type: "BatchNorm"
  batch_norm_param {
    use_global_stats: true
    moving_average_fraction: 0.9
    eps: 0.001
  }
}
graph_node
  bottom: "res_4_block5_conv_proj_batchnorm"
  top: "res_4_block5_conv_proj_batchnorm"
  name: "res_4_block5_conv_proj_batchnorm_scale"
  type: "Scale"
  scale_param { bias_term: true }
}

graph_node
  name: "_plus17"
  type: "Eltwise"
  bottom: "res_4_block5_conv_proj_batchnorm"
  bottom: "_plus16"
  top: "_plus17"
  eltwise_param { operation: SUM }
}

graph_node
	bottom: "_plus17"
	top: "res_4_block6_conv_sep_conv2d"
	name: "res_4_block6_conv_sep_conv2d"
	type: "Convolution"
	convolution_param {
		num_output: 256
		kernel_size: 1
		pad: 0
		stride: 1
		bias_term: false
	}
}

graph_node
  bottom: "res_4_block6_conv_sep_conv2d"
  top: "res_4_block6_conv_sep_batchnorm"
  name: "res_4_block6_conv_sep_batchnorm"
  type: "BatchNorm"
  batch_norm_param {
    use_global_stats: true
    moving_average_fraction: 0.9
    eps: 0.001
  }
}
graph_node
  bottom: "res_4_block6_conv_sep_batchnorm"
  top: "res_4_block6_conv_sep_batchnorm"
  name: "res_4_block6_conv_sep_batchnorm_scale"
  type: "Scale"
  scale_param { bias_term: true }
}

graph_node
  bottom: "res_4_block6_conv_sep_batchnorm"
  top: "res_4_block6_conv_sep_relu"
  name: "res_4_block6_conv_sep_relu"
  type: "PReLU"
}

graph_node
	bottom: "res_4_block6_conv_sep_relu"
	top: "res_4_block6_conv_dw_conv2d"
	name: "res_4_block6_conv_dw_conv2d"
	type: "ConvolutionDepthwise"
	convolution_param {
		num_output: 256
		kernel_size: 3
		pad: 1
		group: 256
            engine:CAFFE
		stride: 1
		bias_term: false
	}
}

graph_node
  bottom: "res_4_block6_conv_dw_conv2d"
  top: "res_4_block6_conv_dw_batchnorm"
  name: "res_4_block6_conv_dw_batchnorm"
  type: "BatchNorm"
  batch_norm_param {
    use_global_stats: true
    moving_average_fraction: 0.9
    eps: 0.001
  }
}
graph_node
  bottom: "res_4_block6_conv_dw_batchnorm"
  top: "res_4_block6_conv_dw_batchnorm"
  name: "res_4_block6_conv_dw_batchnorm_scale"
  type: "Scale"
  scale_param { bias_term: true }
}

graph_node
  bottom: "res_4_block6_conv_dw_batchnorm"
  top: "res_4_block6_conv_dw_relu"
  name: "res_4_block6_conv_dw_relu"
  type: "PReLU"
}

graph_node
	bottom: "res_4_block6_conv_dw_relu"
	top: "res_4_block6_conv_proj_conv2d"
	name: "res_4_block6_conv_proj_conv2d"
	type: "Convolution"
	convolution_param {
		num_output: 256
		kernel_size: 1
		pad: 0
		stride: 1
		bias_term: false
	}
}

graph_node
  bottom: "res_4_block6_conv_proj_conv2d"
  top: "res_4_block6_conv_proj_batchnorm"
  name: "res_4_block6_conv_proj_batchnorm"
  type: "BatchNorm"
  batch_norm_param {
    use_global_stats: true
    moving_average_fraction: 0.9
    eps: 0.001
  }
}
graph_node
  bottom: "res_4_block6_conv_proj_batchnorm"
  top: "res_4_block6_conv_proj_batchnorm"
  name: "res_4_block6_conv_proj_batchnorm_scale"
  type: "Scale"
  scale_param { bias_term: true }
}

graph_node
  name: "_plus18"
  type: "Eltwise"
  bottom: "res_4_block6_conv_proj_batchnorm"
  bottom: "_plus17"
  top: "_plus18"
  eltwise_param { operation: SUM }
}

graph_node
	bottom: "_plus18"
	top: "res_4_block7_conv_sep_conv2d"
	name: "res_4_block7_conv_sep_conv2d"
	type: "Convolution"
	convolution_param {
		num_output: 256
		kernel_size: 1
		pad: 0
		stride: 1
		bias_term: false
	}
}

graph_node
  bottom: "res_4_block7_conv_sep_conv2d"
  top: "res_4_block7_conv_sep_batchnorm"
  name: "res_4_block7_conv_sep_batchnorm"
  type: "BatchNorm"
  batch_norm_param {
    use_global_stats: true
    moving_average_fraction: 0.9
    eps: 0.001
  }
}
graph_node
  bottom: "res_4_block7_conv_sep_batchnorm"
  top: "res_4_block7_conv_sep_batchnorm"
  name: "res_4_block7_conv_sep_batchnorm_scale"
  type: "Scale"
  scale_param { bias_term: true }
}

graph_node
  bottom: "res_4_block7_conv_sep_batchnorm"
  top: "res_4_block7_conv_sep_relu"
  name: "res_4_block7_conv_sep_relu"
  type: "PReLU"
}

graph_node
	bottom: "res_4_block7_conv_sep_relu"
	top: "res_4_block7_conv_dw_conv2d"
	name: "res_4_block7_conv_dw_conv2d"
	type: "ConvolutionDepthwise"
	convolution_param {
		num_output: 256
		kernel_size: 3
		pad: 1
		group: 256
            engine:CAFFE
		stride: 1
		bias_term: false
	}
}

graph_node
  bottom: "res_4_block7_conv_dw_conv2d"
  top: "res_4_block7_conv_dw_batchnorm"
  name: "res_4_block7_conv_dw_batchnorm"
  type: "BatchNorm"
  batch_norm_param {
    use_global_stats: true
    moving_average_fraction: 0.9
    eps: 0.001
  }
}
graph_node
  bottom: "res_4_block7_conv_dw_batchnorm"
  top: "res_4_block7_conv_dw_batchnorm"
  name: "res_4_block7_conv_dw_batchnorm_scale"
  type: "Scale"
  scale_param { bias_term: true }
}

graph_node
  bottom: "res_4_block7_conv_dw_batchnorm"
  top: "res_4_block7_conv_dw_relu"
  name: "res_4_block7_conv_dw_relu"
  type: "PReLU"
}

graph_node
	bottom: "res_4_block7_conv_dw_relu"
	top: "res_4_block7_conv_proj_conv2d"
	name: "res_4_block7_conv_proj_conv2d"
	type: "Convolution"
	convolution_param {
		num_output: 256
		kernel_size: 1
		pad: 0
		stride: 1
		bias_term: false
	}
}

graph_node
  bottom: "res_4_block7_conv_proj_conv2d"
  top: "res_4_block7_conv_proj_batchnorm"
  name: "res_4_block7_conv_proj_batchnorm"
  type: "BatchNorm"
  batch_norm_param {
    use_global_stats: true
    moving_average_fraction: 0.9
    eps: 0.001
  }
}
graph_node
  bottom: "res_4_block7_conv_proj_batchnorm"
  top: "res_4_block7_conv_proj_batchnorm"
  name: "res_4_block7_conv_proj_batchnorm_scale"
  type: "Scale"
  scale_param { bias_term: true }
}

graph_node
  name: "_plus19"
  type: "Eltwise"
  bottom: "res_4_block7_conv_proj_batchnorm"
  bottom: "_plus18"
  top: "_plus19"
  eltwise_param { operation: SUM }
}

graph_node
	bottom: "_plus19"
	top: "res_4_block8_conv_sep_conv2d"
	name: "res_4_block8_conv_sep_conv2d"
	type: "Convolution"
	convolution_param {
		num_output: 256
		kernel_size: 1
		pad: 0
		stride: 1
		bias_term: false
	}
}

graph_node
  bottom: "res_4_block8_conv_sep_conv2d"
  top: "res_4_block8_conv_sep_batchnorm"
  name: "res_4_block8_conv_sep_batchnorm"
  type: "BatchNorm"
  batch_norm_param {
    use_global_stats: true
    moving_average_fraction: 0.9
    eps: 0.001
  }
}
graph_node
  bottom: "res_4_block8_conv_sep_batchnorm"
  top: "res_4_block8_conv_sep_batchnorm"
  name: "res_4_block8_conv_sep_batchnorm_scale"
  type: "Scale"
  scale_param { bias_term: true }
}

graph_node
  bottom: "res_4_block8_conv_sep_batchnorm"
  top: "res_4_block8_conv_sep_relu"
  name: "res_4_block8_conv_sep_relu"
  type: "PReLU"
}

graph_node
	bottom: "res_4_block8_conv_sep_relu"
	top: "res_4_block8_conv_dw_conv2d"
	name: "res_4_block8_conv_dw_conv2d"
	type: "ConvolutionDepthwise"
	convolution_param {
		num_output: 256
		kernel_size: 3
		pad: 1
		group: 256
            engine:CAFFE
		stride: 1
		bias_term: false
	}
}

graph_node
  bottom: "res_4_block8_conv_dw_conv2d"
  top: "res_4_block8_conv_dw_batchnorm"
  name: "res_4_block8_conv_dw_batchnorm"
  type: "BatchNorm"
  batch_norm_param {
    use_global_stats: true
    moving_average_fraction: 0.9
    eps: 0.001
  }
}
graph_node
  bottom: "res_4_block8_conv_dw_batchnorm"
  top: "res_4_block8_conv_dw_batchnorm"
  name: "res_4_block8_conv_dw_batchnorm_scale"
  type: "Scale"
  scale_param { bias_term: true }
}

graph_node
  bottom: "res_4_block8_conv_dw_batchnorm"
  top: "res_4_block8_conv_dw_relu"
  name: "res_4_block8_conv_dw_relu"
  type: "PReLU"
}

graph_node
	bottom: "res_4_block8_conv_dw_relu"
	top: "res_4_block8_conv_proj_conv2d"
	name: "res_4_block8_conv_proj_conv2d"
	type: "Convolution"
	convolution_param {
		num_output: 256
		kernel_size: 1
		pad: 0
		stride: 1
		bias_term: false
	}
}

graph_node
  bottom: "res_4_block8_conv_proj_conv2d"
  top: "res_4_block8_conv_proj_batchnorm"
  name: "res_4_block8_conv_proj_batchnorm"
  type: "BatchNorm"
  batch_norm_param {
    use_global_stats: true
    moving_average_fraction: 0.9
    eps: 0.001
  }
}
graph_node
  bottom: "res_4_block8_conv_proj_batchnorm"
  top: "res_4_block8_conv_proj_batchnorm"
  name: "res_4_block8_conv_proj_batchnorm_scale"
  type: "Scale"
  scale_param { bias_term: true }
}

graph_node
  name: "_plus20"
  type: "Eltwise"
  bottom: "res_4_block8_conv_proj_batchnorm"
  bottom: "_plus19"
  top: "_plus20"
  eltwise_param { operation: SUM }
}

graph_node
	bottom: "_plus20"
	top: "res_4_block9_conv_sep_conv2d"
	name: "res_4_block9_conv_sep_conv2d"
	type: "Convolution"
	convolution_param {
		num_output: 256
		kernel_size: 1
		pad: 0
		stride: 1
		bias_term: false
	}
}

graph_node
  bottom: "res_4_block9_conv_sep_conv2d"
  top: "res_4_block9_conv_sep_batchnorm"
  name: "res_4_block9_conv_sep_batchnorm"
  type: "BatchNorm"
  batch_norm_param {
    use_global_stats: true
    moving_average_fraction: 0.9
    eps: 0.001
  }
}
graph_node
  bottom: "res_4_block9_conv_sep_batchnorm"
  top: "res_4_block9_conv_sep_batchnorm"
  name: "res_4_block9_conv_sep_batchnorm_scale"
  type: "Scale"
  scale_param { bias_term: true }
}

graph_node
  bottom: "res_4_block9_conv_sep_batchnorm"
  top: "res_4_block9_conv_sep_relu"
  name: "res_4_block9_conv_sep_relu"
  type: "PReLU"
}

graph_node
	bottom: "res_4_block9_conv_sep_relu"
	top: "res_4_block9_conv_dw_conv2d"
	name: "res_4_block9_conv_dw_conv2d"
	type: "ConvolutionDepthwise"
	convolution_param {
		num_output: 256
		kernel_size: 3
		pad: 1
		group: 256
            engine:CAFFE
		stride: 1
		bias_term: false
	}
}

graph_node
  bottom: "res_4_block9_conv_dw_conv2d"
  top: "res_4_block9_conv_dw_batchnorm"
  name: "res_4_block9_conv_dw_batchnorm"
  type: "BatchNorm"
  batch_norm_param {
    use_global_stats: true
    moving_average_fraction: 0.9
    eps: 0.001
  }
}
graph_node
  bottom: "res_4_block9_conv_dw_batchnorm"
  top: "res_4_block9_conv_dw_batchnorm"
  name: "res_4_block9_conv_dw_batchnorm_scale"
  type: "Scale"
  scale_param { bias_term: true }
}

graph_node
  bottom: "res_4_block9_conv_dw_batchnorm"
  top: "res_4_block9_conv_dw_relu"
  name: "res_4_block9_conv_dw_relu"
  type: "PReLU"
}

graph_node
	bottom: "res_4_block9_conv_dw_relu"
	top: "res_4_block9_conv_proj_conv2d"
	name: "res_4_block9_conv_proj_conv2d"
	type: "Convolution"
	convolution_param {
		num_output: 256
		kernel_size: 1
		pad: 0
		stride: 1
		bias_term: false
	}
}

graph_node
  bottom: "res_4_block9_conv_proj_conv2d"
  top: "res_4_block9_conv_proj_batchnorm"
  name: "res_4_block9_conv_proj_batchnorm"
  type: "BatchNorm"
  batch_norm_param {
    use_global_stats: true
    moving_average_fraction: 0.9
    eps: 0.001
  }
}
graph_node
  bottom: "res_4_block9_conv_proj_batchnorm"
  top: "res_4_block9_conv_proj_batchnorm"
  name: "res_4_block9_conv_proj_batchnorm_scale"
  type: "Scale"
  scale_param { bias_term: true }
}

graph_node
  name: "_plus21"
  type: "Eltwise"
  bottom: "res_4_block9_conv_proj_batchnorm"
  bottom: "_plus20"
  top: "_plus21"
  eltwise_param { operation: SUM }
}

graph_node
	bottom: "_plus21"
	top: "res_4_block10_conv_sep_conv2d"
	name: "res_4_block10_conv_sep_conv2d"
	type: "Convolution"
	convolution_param {
		num_output: 256
		kernel_size: 1
		pad: 0
		stride: 1
		bias_term: false
	}
}

graph_node
  bottom: "res_4_block10_conv_sep_conv2d"
  top: "res_4_block10_conv_sep_batchnorm"
  name: "res_4_block10_conv_sep_batchnorm"
  type: "BatchNorm"
  batch_norm_param {
    use_global_stats: true
    moving_average_fraction: 0.9
    eps: 0.001
  }
}
graph_node
  bottom: "res_4_block10_conv_sep_batchnorm"
  top: "res_4_block10_conv_sep_batchnorm"
  name: "res_4_block10_conv_sep_batchnorm_scale"
  type: "Scale"
  scale_param { bias_term: true }
}

graph_node
  bottom: "res_4_block10_conv_sep_batchnorm"
  top: "res_4_block10_conv_sep_relu"
  name: "res_4_block10_conv_sep_relu"
  type: "PReLU"
}

graph_node
	bottom: "res_4_block10_conv_sep_relu"
	top: "res_4_block10_conv_dw_conv2d"
	name: "res_4_block10_conv_dw_conv2d"
	type: "ConvolutionDepthwise"
	convolution_param {
		num_output: 256
		kernel_size: 3
		pad: 1
		group: 256
            engine:CAFFE
		stride: 1
		bias_term: false
	}
}

graph_node
  bottom: "res_4_block10_conv_dw_conv2d"
  top: "res_4_block10_conv_dw_batchnorm"
  name: "res_4_block10_conv_dw_batchnorm"
  type: "BatchNorm"
  batch_norm_param {
    use_global_stats: true
    moving_average_fraction: 0.9
    eps: 0.001
  }
}
graph_node
  bottom: "res_4_block10_conv_dw_batchnorm"
  top: "res_4_block10_conv_dw_batchnorm"
  name: "res_4_block10_conv_dw_batchnorm_scale"
  type: "Scale"
  scale_param { bias_term: true }
}

graph_node
  bottom: "res_4_block10_conv_dw_batchnorm"
  top: "res_4_block10_conv_dw_relu"
  name: "res_4_block10_conv_dw_relu"
  type: "PReLU"
}

graph_node
	bottom: "res_4_block10_conv_dw_relu"
	top: "res_4_block10_conv_proj_conv2d"
	name: "res_4_block10_conv_proj_conv2d"
	type: "Convolution"
	convolution_param {
		num_output: 256
		kernel_size: 1
		pad: 0
		stride: 1
		bias_term: false
	}
}

graph_node
  bottom: "res_4_block10_conv_proj_conv2d"
  top: "res_4_block10_conv_proj_batchnorm"
  name: "res_4_block10_conv_proj_batchnorm"
  type: "BatchNorm"
  batch_norm_param {
    use_global_stats: true
    moving_average_fraction: 0.9
    eps: 0.001
  }
}
graph_node
  bottom: "res_4_block10_conv_proj_batchnorm"
  top: "res_4_block10_conv_proj_batchnorm"
  name: "res_4_block10_conv_proj_batchnorm_scale"
  type: "Scale"
  scale_param { bias_term: true }
}

graph_node
  name: "_plus22"
  type: "Eltwise"
  bottom: "res_4_block10_conv_proj_batchnorm"
  bottom: "_plus21"
  top: "_plus22"
  eltwise_param { operation: SUM }
}

graph_node
	bottom: "_plus22"
	top: "res_4_block11_conv_sep_conv2d"
	name: "res_4_block11_conv_sep_conv2d"
	type: "Convolution"
	convolution_param {
		num_output: 256
		kernel_size: 1
		pad: 0
		stride: 1
		bias_term: false
	}
}

graph_node
  bottom: "res_4_block11_conv_sep_conv2d"
  top: "res_4_block11_conv_sep_batchnorm"
  name: "res_4_block11_conv_sep_batchnorm"
  type: "BatchNorm"
  batch_norm_param {
    use_global_stats: true
    moving_average_fraction: 0.9
    eps: 0.001
  }
}
graph_node
  bottom: "res_4_block11_conv_sep_batchnorm"
  top: "res_4_block11_conv_sep_batchnorm"
  name: "res_4_block11_conv_sep_batchnorm_scale"
  type: "Scale"
  scale_param { bias_term: true }
}

graph_node
  bottom: "res_4_block11_conv_sep_batchnorm"
  top: "res_4_block11_conv_sep_relu"
  name: "res_4_block11_conv_sep_relu"
  type: "PReLU"
}

graph_node
	bottom: "res_4_block11_conv_sep_relu"
	top: "res_4_block11_conv_dw_conv2d"
	name: "res_4_block11_conv_dw_conv2d"
	type: "ConvolutionDepthwise"
	convolution_param {
		num_output: 256
		kernel_size: 3
		pad: 1
		group: 256
            engine:CAFFE
		stride: 1
		bias_term: false
	}
}

graph_node
  bottom: "res_4_block11_conv_dw_conv2d"
  top: "res_4_block11_conv_dw_batchnorm"
  name: "res_4_block11_conv_dw_batchnorm"
  type: "BatchNorm"
  batch_norm_param {
    use_global_stats: true
    moving_average_fraction: 0.9
    eps: 0.001
  }
}
graph_node
  bottom: "res_4_block11_conv_dw_batchnorm"
  top: "res_4_block11_conv_dw_batchnorm"
  name: "res_4_block11_conv_dw_batchnorm_scale"
  type: "Scale"
  scale_param { bias_term: true }
}

graph_node
  bottom: "res_4_block11_conv_dw_batchnorm"
  top: "res_4_block11_conv_dw_relu"
  name: "res_4_block11_conv_dw_relu"
  type: "PReLU"
}

graph_node
	bottom: "res_4_block11_conv_dw_relu"
	top: "res_4_block11_conv_proj_conv2d"
	name: "res_4_block11_conv_proj_conv2d"
	type: "Convolution"
	convolution_param {
		num_output: 256
		kernel_size: 1
		pad: 0
		stride: 1
		bias_term: false
	}
}

graph_node
  bottom: "res_4_block11_conv_proj_conv2d"
  top: "res_4_block11_conv_proj_batchnorm"
  name: "res_4_block11_conv_proj_batchnorm"
  type: "BatchNorm"
  batch_norm_param {
    use_global_stats: true
    moving_average_fraction: 0.9
    eps: 0.001
  }
}
graph_node
  bottom: "res_4_block11_conv_proj_batchnorm"
  top: "res_4_block11_conv_proj_batchnorm"
  name: "res_4_block11_conv_proj_batchnorm_scale"
  type: "Scale"
  scale_param { bias_term: true }
}

graph_node
  name: "_plus23"
  type: "Eltwise"
  bottom: "res_4_block11_conv_proj_batchnorm"
  bottom: "_plus22"
  top: "_plus23"
  eltwise_param { operation: SUM }
}

graph_node
	bottom: "_plus23"
	top: "res_4_block12_conv_sep_conv2d"
	name: "res_4_block12_conv_sep_conv2d"
	type: "Convolution"
	convolution_param {
		num_output: 256
		kernel_size: 1
		pad: 0
		stride: 1
		bias_term: false
	}
}

graph_node
  bottom: "res_4_block12_conv_sep_conv2d"
  top: "res_4_block12_conv_sep_batchnorm"
  name: "res_4_block12_conv_sep_batchnorm"
  type: "BatchNorm"
  batch_norm_param {
    use_global_stats: true
    moving_average_fraction: 0.9
    eps: 0.001
  }
}
graph_node
  bottom: "res_4_block12_conv_sep_batchnorm"
  top: "res_4_block12_conv_sep_batchnorm"
  name: "res_4_block12_conv_sep_batchnorm_scale"
  type: "Scale"
  scale_param { bias_term: true }
}

graph_node
  bottom: "res_4_block12_conv_sep_batchnorm"
  top: "res_4_block12_conv_sep_relu"
  name: "res_4_block12_conv_sep_relu"
  type: "PReLU"
}

graph_node
	bottom: "res_4_block12_conv_sep_relu"
	top: "res_4_block12_conv_dw_conv2d"
	name: "res_4_block12_conv_dw_conv2d"
	type: "ConvolutionDepthwise"
	convolution_param {
		num_output: 256
		kernel_size: 3
		pad: 1
		group: 256
            engine:CAFFE
		stride: 1
		bias_term: false
	}
}

graph_node
  bottom: "res_4_block12_conv_dw_conv2d"
  top: "res_4_block12_conv_dw_batchnorm"
  name: "res_4_block12_conv_dw_batchnorm"
  type: "BatchNorm"
  batch_norm_param {
    use_global_stats: true
    moving_average_fraction: 0.9
    eps: 0.001
  }
}
graph_node
  bottom: "res_4_block12_conv_dw_batchnorm"
  top: "res_4_block12_conv_dw_batchnorm"
  name: "res_4_block12_conv_dw_batchnorm_scale"
  type: "Scale"
  scale_param { bias_term: true }
}

graph_node
  bottom: "res_4_block12_conv_dw_batchnorm"
  top: "res_4_block12_conv_dw_relu"
  name: "res_4_block12_conv_dw_relu"
  type: "PReLU"
}

graph_node
	bottom: "res_4_block12_conv_dw_relu"
	top: "res_4_block12_conv_proj_conv2d"
	name: "res_4_block12_conv_proj_conv2d"
	type: "Convolution"
	convolution_param {
		num_output: 256
		kernel_size: 1
		pad: 0
		stride: 1
		bias_term: false
	}
}

graph_node
  bottom: "res_4_block12_conv_proj_conv2d"
  top: "res_4_block12_conv_proj_batchnorm"
  name: "res_4_block12_conv_proj_batchnorm"
  type: "BatchNorm"
  batch_norm_param {
    use_global_stats: true
    moving_average_fraction: 0.9
    eps: 0.001
  }
}
graph_node
  bottom: "res_4_block12_conv_proj_batchnorm"
  top: "res_4_block12_conv_proj_batchnorm"
  name: "res_4_block12_conv_proj_batchnorm_scale"
  type: "Scale"
  scale_param { bias_term: true }
}

graph_node
  name: "_plus24"
  type: "Eltwise"
  bottom: "res_4_block12_conv_proj_batchnorm"
  bottom: "_plus23"
  top: "_plus24"
  eltwise_param { operation: SUM }
}

graph_node
	bottom: "_plus24"
	top: "res_4_block13_conv_sep_conv2d"
	name: "res_4_block13_conv_sep_conv2d"
	type: "Convolution"
	convolution_param {
		num_output: 256
		kernel_size: 1
		pad: 0
		stride: 1
		bias_term: false
	}
}

graph_node
  bottom: "res_4_block13_conv_sep_conv2d"
  top: "res_4_block13_conv_sep_batchnorm"
  name: "res_4_block13_conv_sep_batchnorm"
  type: "BatchNorm"
  batch_norm_param {
    use_global_stats: true
    moving_average_fraction: 0.9
    eps: 0.001
  }
}
graph_node
  bottom: "res_4_block13_conv_sep_batchnorm"
  top: "res_4_block13_conv_sep_batchnorm"
  name: "res_4_block13_conv_sep_batchnorm_scale"
  type: "Scale"
  scale_param { bias_term: true }
}

graph_node
  bottom: "res_4_block13_conv_sep_batchnorm"
  top: "res_4_block13_conv_sep_relu"
  name: "res_4_block13_conv_sep_relu"
  type: "PReLU"
}

graph_node
	bottom: "res_4_block13_conv_sep_relu"
	top: "res_4_block13_conv_dw_conv2d"
	name: "res_4_block13_conv_dw_conv2d"
	type: "ConvolutionDepthwise"
	convolution_param {
		num_output: 256
		kernel_size: 3
		pad: 1
		group: 256
            engine:CAFFE
		stride: 1
		bias_term: false
	}
}

graph_node
  bottom: "res_4_block13_conv_dw_conv2d"
  top: "res_4_block13_conv_dw_batchnorm"
  name: "res_4_block13_conv_dw_batchnorm"
  type: "BatchNorm"
  batch_norm_param {
    use_global_stats: true
    moving_average_fraction: 0.9
    eps: 0.001
  }
}
graph_node
  bottom: "res_4_block13_conv_dw_batchnorm"
  top: "res_4_block13_conv_dw_batchnorm"
  name: "res_4_block13_conv_dw_batchnorm_scale"
  type: "Scale"
  scale_param { bias_term: true }
}

graph_node
  bottom: "res_4_block13_conv_dw_batchnorm"
  top: "res_4_block13_conv_dw_relu"
  name: "res_4_block13_conv_dw_relu"
  type: "PReLU"
}

graph_node
	bottom: "res_4_block13_conv_dw_relu"
	top: "res_4_block13_conv_proj_conv2d"
	name: "res_4_block13_conv_proj_conv2d"
	type: "Convolution"
	convolution_param {
		num_output: 256
		kernel_size: 1
		pad: 0
		stride: 1
		bias_term: false
	}
}

graph_node
  bottom: "res_4_block13_conv_proj_conv2d"
  top: "res_4_block13_conv_proj_batchnorm"
  name: "res_4_block13_conv_proj_batchnorm"
  type: "BatchNorm"
  batch_norm_param {
    use_global_stats: true
    moving_average_fraction: 0.9
    eps: 0.001
  }
}
graph_node
  bottom: "res_4_block13_conv_proj_batchnorm"
  top: "res_4_block13_conv_proj_batchnorm"
  name: "res_4_block13_conv_proj_batchnorm_scale"
  type: "Scale"
  scale_param { bias_term: true }
}

graph_node
  name: "_plus25"
  type: "Eltwise"
  bottom: "res_4_block13_conv_proj_batchnorm"
  bottom: "_plus24"
  top: "_plus25"
  eltwise_param { operation: SUM }
}

graph_node
	bottom: "_plus25"
	top: "res_4_block14_conv_sep_conv2d"
	name: "res_4_block14_conv_sep_conv2d"
	type: "Convolution"
	convolution_param {
		num_output: 256
		kernel_size: 1
		pad: 0
		stride: 1
		bias_term: false
	}
}

graph_node
  bottom: "res_4_block14_conv_sep_conv2d"
  top: "res_4_block14_conv_sep_batchnorm"
  name: "res_4_block14_conv_sep_batchnorm"
  type: "BatchNorm"
  batch_norm_param {
    use_global_stats: true
    moving_average_fraction: 0.9
    eps: 0.001
  }
}
graph_node
  bottom: "res_4_block14_conv_sep_batchnorm"
  top: "res_4_block14_conv_sep_batchnorm"
  name: "res_4_block14_conv_sep_batchnorm_scale"
  type: "Scale"
  scale_param { bias_term: true }
}

graph_node
  bottom: "res_4_block14_conv_sep_batchnorm"
  top: "res_4_block14_conv_sep_relu"
  name: "res_4_block14_conv_sep_relu"
  type: "PReLU"
}

graph_node
	bottom: "res_4_block14_conv_sep_relu"
	top: "res_4_block14_conv_dw_conv2d"
	name: "res_4_block14_conv_dw_conv2d"
	type: "ConvolutionDepthwise"
	convolution_param {
		num_output: 256
		kernel_size: 3
		pad: 1
		group: 256
            engine:CAFFE
		stride: 1
		bias_term: false
	}
}

graph_node
  bottom: "res_4_block14_conv_dw_conv2d"
  top: "res_4_block14_conv_dw_batchnorm"
  name: "res_4_block14_conv_dw_batchnorm"
  type: "BatchNorm"
  batch_norm_param {
    use_global_stats: true
    moving_average_fraction: 0.9
    eps: 0.001
  }
}
graph_node
  bottom: "res_4_block14_conv_dw_batchnorm"
  top: "res_4_block14_conv_dw_batchnorm"
  name: "res_4_block14_conv_dw_batchnorm_scale"
  type: "Scale"
  scale_param { bias_term: true }
}

graph_node
  bottom: "res_4_block14_conv_dw_batchnorm"
  top: "res_4_block14_conv_dw_relu"
  name: "res_4_block14_conv_dw_relu"
  type: "PReLU"
}

graph_node
	bottom: "res_4_block14_conv_dw_relu"
	top: "res_4_block14_conv_proj_conv2d"
	name: "res_4_block14_conv_proj_conv2d"
	type: "Convolution"
	convolution_param {
		num_output: 256
		kernel_size: 1
		pad: 0
		stride: 1
		bias_term: false
	}
}

graph_node
  bottom: "res_4_block14_conv_proj_conv2d"
  top: "res_4_block14_conv_proj_batchnorm"
  name: "res_4_block14_conv_proj_batchnorm"
  type: "BatchNorm"
  batch_norm_param {
    use_global_stats: true
    moving_average_fraction: 0.9
    eps: 0.001
  }
}
graph_node
  bottom: "res_4_block14_conv_proj_batchnorm"
  top: "res_4_block14_conv_proj_batchnorm"
  name: "res_4_block14_conv_proj_batchnorm_scale"
  type: "Scale"
  scale_param { bias_term: true }
}

graph_node
  name: "_plus26"
  type: "Eltwise"
  bottom: "res_4_block14_conv_proj_batchnorm"
  bottom: "_plus25"
  top: "_plus26"
  eltwise_param { operation: SUM }
}

graph_node
	bottom: "_plus26"
	top: "res_4_block15_conv_sep_conv2d"
	name: "res_4_block15_conv_sep_conv2d"
	type: "Convolution"
	convolution_param {
		num_output: 256
		kernel_size: 1
		pad: 0
		stride: 1
		bias_term: false
	}
}

graph_node
  bottom: "res_4_block15_conv_sep_conv2d"
  top: "res_4_block15_conv_sep_batchnorm"
  name: "res_4_block15_conv_sep_batchnorm"
  type: "BatchNorm"
  batch_norm_param {
    use_global_stats: true
    moving_average_fraction: 0.9
    eps: 0.001
  }
}
graph_node
  bottom: "res_4_block15_conv_sep_batchnorm"
  top: "res_4_block15_conv_sep_batchnorm"
  name: "res_4_block15_conv_sep_batchnorm_scale"
  type: "Scale"
  scale_param { bias_term: true }
}

graph_node
  bottom: "res_4_block15_conv_sep_batchnorm"
  top: "res_4_block15_conv_sep_relu"
  name: "res_4_block15_conv_sep_relu"
  type: "PReLU"
}

graph_node
	bottom: "res_4_block15_conv_sep_relu"
	top: "res_4_block15_conv_dw_conv2d"
	name: "res_4_block15_conv_dw_conv2d"
	type: "ConvolutionDepthwise"
	convolution_param {
		num_output: 256
		kernel_size: 3
		pad: 1
		group: 256
            engine:CAFFE
		stride: 1
		bias_term: false
	}
}

graph_node
  bottom: "res_4_block15_conv_dw_conv2d"
  top: "res_4_block15_conv_dw_batchnorm"
  name: "res_4_block15_conv_dw_batchnorm"
  type: "BatchNorm"
  batch_norm_param {
    use_global_stats: true
    moving_average_fraction: 0.9
    eps: 0.001
  }
}
graph_node
  bottom: "res_4_block15_conv_dw_batchnorm"
  top: "res_4_block15_conv_dw_batchnorm"
  name: "res_4_block15_conv_dw_batchnorm_scale"
  type: "Scale"
  scale_param { bias_term: true }
}

graph_node
  bottom: "res_4_block15_conv_dw_batchnorm"
  top: "res_4_block15_conv_dw_relu"
  name: "res_4_block15_conv_dw_relu"
  type: "PReLU"
}

graph_node
	bottom: "res_4_block15_conv_dw_relu"
	top: "res_4_block15_conv_proj_conv2d"
	name: "res_4_block15_conv_proj_conv2d"
	type: "Convolution"
	convolution_param {
		num_output: 256
		kernel_size: 1
		pad: 0
		stride: 1
		bias_term: false
	}
}

graph_node
  bottom: "res_4_block15_conv_proj_conv2d"
  top: "res_4_block15_conv_proj_batchnorm"
  name: "res_4_block15_conv_proj_batchnorm"
  type: "BatchNorm"
  batch_norm_param {
    use_global_stats: true
    moving_average_fraction: 0.9
    eps: 0.001
  }
}
graph_node
  bottom: "res_4_block15_conv_proj_batchnorm"
  top: "res_4_block15_conv_proj_batchnorm"
  name: "res_4_block15_conv_proj_batchnorm_scale"
  type: "Scale"
  scale_param { bias_term: true }
}

graph_node
  name: "_plus27"
  type: "Eltwise"
  bottom: "res_4_block15_conv_proj_batchnorm"
  bottom: "_plus26"
  top: "_plus27"
  eltwise_param { operation: SUM }
}

graph_node
	bottom: "_plus27"
	top: "dconv_45_conv_sep_conv2d"
	name: "dconv_45_conv_sep_conv2d"
	type: "Convolution"
	convolution_param {
		num_output: 512
		kernel_size: 1
		pad: 0
		stride: 1
		bias_term: false
	}
}

graph_node
  bottom: "dconv_45_conv_sep_conv2d"
  top: "dconv_45_conv_sep_batchnorm"
  name: "dconv_45_conv_sep_batchnorm"
  type: "BatchNorm"
  batch_norm_param {
    use_global_stats: true
    moving_average_fraction: 0.9
    eps: 0.001
  }
}
graph_node
  bottom: "dconv_45_conv_sep_batchnorm"
  top: "dconv_45_conv_sep_batchnorm"
  name: "dconv_45_conv_sep_batchnorm_scale"
  type: "Scale"
  scale_param { bias_term: true }
}

graph_node
  bottom: "dconv_45_conv_sep_batchnorm"
  top: "dconv_45_conv_sep_relu"
  name: "dconv_45_conv_sep_relu"
  type: "PReLU"
}

graph_node
	bottom: "dconv_45_conv_sep_relu"
	top: "dconv_45_conv_dw_conv2d"
	name: "dconv_45_conv_dw_conv2d"
	type: "ConvolutionDepthwise"
	convolution_param {
		num_output: 512
		kernel_size: 3
		pad: 1
		group: 512
            engine:CAFFE
		stride: 2
		bias_term: false
	}
}

graph_node
  bottom: "dconv_45_conv_dw_conv2d"
  top: "dconv_45_conv_dw_batchnorm"
  name: "dconv_45_conv_dw_batchnorm"
  type: "BatchNorm"
  batch_norm_param {
    use_global_stats: true
    moving_average_fraction: 0.9
    eps: 0.001
  }
}
graph_node
  bottom: "dconv_45_conv_dw_batchnorm"
  top: "dconv_45_conv_dw_batchnorm"
  name: "dconv_45_conv_dw_batchnorm_scale"
  type: "Scale"
  scale_param { bias_term: true }
}

graph_node
  bottom: "dconv_45_conv_dw_batchnorm"
  top: "dconv_45_conv_dw_relu"
  name: "dconv_45_conv_dw_relu"
  type: "PReLU"
}

graph_node
	bottom: "dconv_45_conv_dw_relu"
	top: "dconv_45_conv_proj_conv2d"
	name: "dconv_45_conv_proj_conv2d"
	type: "Convolution"
	convolution_param {
		num_output: 512
		kernel_size: 1
		pad: 0
		stride: 1
		bias_term: false
	}
}

graph_node
  bottom: "dconv_45_conv_proj_conv2d"
  top: "dconv_45_conv_proj_batchnorm"
  name: "dconv_45_conv_proj_batchnorm"
  type: "BatchNorm"
  batch_norm_param {
    use_global_stats: true
    moving_average_fraction: 0.9
    eps: 0.001
  }
}
graph_node
  bottom: "dconv_45_conv_proj_batchnorm"
  top: "dconv_45_conv_proj_batchnorm"
  name: "dconv_45_conv_proj_batchnorm_scale"
  type: "Scale"
  scale_param { bias_term: true }
}

graph_node
	bottom: "dconv_45_conv_proj_batchnorm"
	top: "res_5_block0_conv_sep_conv2d"
	name: "res_5_block0_conv_sep_conv2d"
	type: "Convolution"
	convolution_param {
		num_output: 512
		kernel_size: 1
		pad: 0
		stride: 1
		bias_term: false
	}
}

graph_node
  bottom: "res_5_block0_conv_sep_conv2d"
  top: "res_5_block0_conv_sep_batchnorm"
  name: "res_5_block0_conv_sep_batchnorm"
  type: "BatchNorm"
  batch_norm_param {
    use_global_stats: true
    moving_average_fraction: 0.9
    eps: 0.001
  }
}
graph_node
  bottom: "res_5_block0_conv_sep_batchnorm"
  top: "res_5_block0_conv_sep_batchnorm"
  name: "res_5_block0_conv_sep_batchnorm_scale"
  type: "Scale"
  scale_param { bias_term: true }
}

graph_node
  bottom: "res_5_block0_conv_sep_batchnorm"
  top: "res_5_block0_conv_sep_relu"
  name: "res_5_block0_conv_sep_relu"
  type: "PReLU"
}

graph_node
	bottom: "res_5_block0_conv_sep_relu"
	top: "res_5_block0_conv_dw_conv2d"
	name: "res_5_block0_conv_dw_conv2d"
	type: "ConvolutionDepthwise"
	convolution_param {
		num_output: 512
		kernel_size: 3
		pad: 1
		group: 512
            engine:CAFFE
		stride: 1
		bias_term: false
	}
}

graph_node
  bottom: "res_5_block0_conv_dw_conv2d"
  top: "res_5_block0_conv_dw_batchnorm"
  name: "res_5_block0_conv_dw_batchnorm"
  type: "BatchNorm"
  batch_norm_param {
    use_global_stats: true
    moving_average_fraction: 0.9
    eps: 0.001
  }
}
graph_node
  bottom: "res_5_block0_conv_dw_batchnorm"
  top: "res_5_block0_conv_dw_batchnorm"
  name: "res_5_block0_conv_dw_batchnorm_scale"
  type: "Scale"
  scale_param { bias_term: true }
}

graph_node
  bottom: "res_5_block0_conv_dw_batchnorm"
  top: "res_5_block0_conv_dw_relu"
  name: "res_5_block0_conv_dw_relu"
  type: "PReLU"
}

graph_node
	bottom: "res_5_block0_conv_dw_relu"
	top: "res_5_block0_conv_proj_conv2d"
	name: "res_5_block0_conv_proj_conv2d"
	type: "Convolution"
	convolution_param {
		num_output: 512
		kernel_size: 1
		pad: 0
		stride: 1
		bias_term: false
	}
}

graph_node
  bottom: "res_5_block0_conv_proj_conv2d"
  top: "res_5_block0_conv_proj_batchnorm"
  name: "res_5_block0_conv_proj_batchnorm"
  type: "BatchNorm"
  batch_norm_param {
    use_global_stats: true
    moving_average_fraction: 0.9
    eps: 0.001
  }
}
graph_node
  bottom: "res_5_block0_conv_proj_batchnorm"
  top: "res_5_block0_conv_proj_batchnorm"
  name: "res_5_block0_conv_proj_batchnorm_scale"
  type: "Scale"
  scale_param { bias_term: true }
}

graph_node
  name: "_plus28"
  type: "Eltwise"
  bottom: "res_5_block0_conv_proj_batchnorm"
  bottom: "dconv_45_conv_proj_batchnorm"
  top: "_plus28"
  eltwise_param { operation: SUM }
}

graph_node
	bottom: "_plus28"
	top: "res_5_block1_conv_sep_conv2d"
	name: "res_5_block1_conv_sep_conv2d"
	type: "Convolution"
	convolution_param {
		num_output: 512
		kernel_size: 1
		pad: 0
		stride: 1
		bias_term: false
	}
}

graph_node
  bottom: "res_5_block1_conv_sep_conv2d"
  top: "res_5_block1_conv_sep_batchnorm"
  name: "res_5_block1_conv_sep_batchnorm"
  type: "BatchNorm"
  batch_norm_param {
    use_global_stats: true
    moving_average_fraction: 0.9
    eps: 0.001
  }
}
graph_node
  bottom: "res_5_block1_conv_sep_batchnorm"
  top: "res_5_block1_conv_sep_batchnorm"
  name: "res_5_block1_conv_sep_batchnorm_scale"
  type: "Scale"
  scale_param { bias_term: true }
}

graph_node
  bottom: "res_5_block1_conv_sep_batchnorm"
  top: "res_5_block1_conv_sep_relu"
  name: "res_5_block1_conv_sep_relu"
  type: "PReLU"
}

graph_node
	bottom: "res_5_block1_conv_sep_relu"
	top: "res_5_block1_conv_dw_conv2d"
	name: "res_5_block1_conv_dw_conv2d"
	type: "ConvolutionDepthwise"
	convolution_param {
		num_output: 512
		kernel_size: 3
		pad: 1
		group: 512
            engine:CAFFE
		stride: 1
		bias_term: false
	}
}

graph_node
  bottom: "res_5_block1_conv_dw_conv2d"
  top: "res_5_block1_conv_dw_batchnorm"
  name: "res_5_block1_conv_dw_batchnorm"
  type: "BatchNorm"
  batch_norm_param {
    use_global_stats: true
    moving_average_fraction: 0.9
    eps: 0.001
  }
}
graph_node
  bottom: "res_5_block1_conv_dw_batchnorm"
  top: "res_5_block1_conv_dw_batchnorm"
  name: "res_5_block1_conv_dw_batchnorm_scale"
  type: "Scale"
  scale_param { bias_term: true }
}

graph_node
  bottom: "res_5_block1_conv_dw_batchnorm"
  top: "res_5_block1_conv_dw_relu"
  name: "res_5_block1_conv_dw_relu"
  type: "PReLU"
}

graph_node
	bottom: "res_5_block1_conv_dw_relu"
	top: "res_5_block1_conv_proj_conv2d"
	name: "res_5_block1_conv_proj_conv2d"
	type: "Convolution"
	convolution_param {
		num_output: 512
		kernel_size: 1
		pad: 0
		stride: 1
		bias_term: false
	}
}

graph_node
  bottom: "res_5_block1_conv_proj_conv2d"
  top: "res_5_block1_conv_proj_batchnorm"
  name: "res_5_block1_conv_proj_batchnorm"
  type: "BatchNorm"
  batch_norm_param {
    use_global_stats: true
    moving_average_fraction: 0.9
    eps: 0.001
  }
}
graph_node
  bottom: "res_5_block1_conv_proj_batchnorm"
  top: "res_5_block1_conv_proj_batchnorm"
  name: "res_5_block1_conv_proj_batchnorm_scale"
  type: "Scale"
  scale_param { bias_term: true }
}

graph_node
  name: "_plus29"
  type: "Eltwise"
  bottom: "res_5_block1_conv_proj_batchnorm"
  bottom: "_plus28"
  top: "_plus29"
  eltwise_param { operation: SUM }
}

graph_node
	bottom: "_plus29"
	top: "res_5_block2_conv_sep_conv2d"
	name: "res_5_block2_conv_sep_conv2d"
	type: "Convolution"
	convolution_param {
		num_output: 512
		kernel_size: 1
		pad: 0
		stride: 1
		bias_term: false
	}
}

graph_node
  bottom: "res_5_block2_conv_sep_conv2d"
  top: "res_5_block2_conv_sep_batchnorm"
  name: "res_5_block2_conv_sep_batchnorm"
  type: "BatchNorm"
  batch_norm_param {
    use_global_stats: true
    moving_average_fraction: 0.9
    eps: 0.001
  }
}
graph_node
  bottom: "res_5_block2_conv_sep_batchnorm"
  top: "res_5_block2_conv_sep_batchnorm"
  name: "res_5_block2_conv_sep_batchnorm_scale"
  type: "Scale"
  scale_param { bias_term: true }
}

graph_node
  bottom: "res_5_block2_conv_sep_batchnorm"
  top: "res_5_block2_conv_sep_relu"
  name: "res_5_block2_conv_sep_relu"
  type: "PReLU"
}

graph_node
	bottom: "res_5_block2_conv_sep_relu"
	top: "res_5_block2_conv_dw_conv2d"
	name: "res_5_block2_conv_dw_conv2d"
	type: "ConvolutionDepthwise"
	convolution_param {
		num_output: 512
		kernel_size: 3
		pad: 1
		group: 512
            engine:CAFFE
		stride: 1
		bias_term: false
	}
}

graph_node
  bottom: "res_5_block2_conv_dw_conv2d"
  top: "res_5_block2_conv_dw_batchnorm"
  name: "res_5_block2_conv_dw_batchnorm"
  type: "BatchNorm"
  batch_norm_param {
    use_global_stats: true
    moving_average_fraction: 0.9
    eps: 0.001
  }
}
graph_node
  bottom: "res_5_block2_conv_dw_batchnorm"
  top: "res_5_block2_conv_dw_batchnorm"
  name: "res_5_block2_conv_dw_batchnorm_scale"
  type: "Scale"
  scale_param { bias_term: true }
}

graph_node
  bottom: "res_5_block2_conv_dw_batchnorm"
  top: "res_5_block2_conv_dw_relu"
  name: "res_5_block2_conv_dw_relu"
  type: "PReLU"
}

graph_node
	bottom: "res_5_block2_conv_dw_relu"
	top: "res_5_block2_conv_proj_conv2d"
	name: "res_5_block2_conv_proj_conv2d"
	type: "Convolution"
	convolution_param {
		num_output: 512
		kernel_size: 1
		pad: 0
		stride: 1
		bias_term: false
	}
}

graph_node
  bottom: "res_5_block2_conv_proj_conv2d"
  top: "res_5_block2_conv_proj_batchnorm"
  name: "res_5_block2_conv_proj_batchnorm"
  type: "BatchNorm"
  batch_norm_param {
    use_global_stats: true
    moving_average_fraction: 0.9
    eps: 0.001
  }
}
graph_node
  bottom: "res_5_block2_conv_proj_batchnorm"
  top: "res_5_block2_conv_proj_batchnorm"
  name: "res_5_block2_conv_proj_batchnorm_scale"
  type: "Scale"
  scale_param { bias_term: true }
}

graph_node
  name: "_plus30"
  type: "Eltwise"
  bottom: "res_5_block2_conv_proj_batchnorm"
  bottom: "_plus29"
  top: "_plus30"
  eltwise_param { operation: SUM }
}

graph_node
	bottom: "_plus30"
	top: "res_5_block3_conv_sep_conv2d"
	name: "res_5_block3_conv_sep_conv2d"
	type: "Convolution"
	convolution_param {
		num_output: 512
		kernel_size: 1
		pad: 0
		stride: 1
		bias_term: false
	}
}

graph_node
  bottom: "res_5_block3_conv_sep_conv2d"
  top: "res_5_block3_conv_sep_batchnorm"
  name: "res_5_block3_conv_sep_batchnorm"
  type: "BatchNorm"
  batch_norm_param {
    use_global_stats: true
    moving_average_fraction: 0.9
    eps: 0.001
  }
}
graph_node
  bottom: "res_5_block3_conv_sep_batchnorm"
  top: "res_5_block3_conv_sep_batchnorm"
  name: "res_5_block3_conv_sep_batchnorm_scale"
  type: "Scale"
  scale_param { bias_term: true }
}

graph_node
  bottom: "res_5_block3_conv_sep_batchnorm"
  top: "res_5_block3_conv_sep_relu"
  name: "res_5_block3_conv_sep_relu"
  type: "PReLU"
}

graph_node
	bottom: "res_5_block3_conv_sep_relu"
	top: "res_5_block3_conv_dw_conv2d"
	name: "res_5_block3_conv_dw_conv2d"
	type: "ConvolutionDepthwise"
	convolution_param {
		num_output: 512
		kernel_size: 3
		pad: 1
		group: 512
            engine:CAFFE
		stride: 1
		bias_term: false
	}
}

graph_node
  bottom: "res_5_block3_conv_dw_conv2d"
  top: "res_5_block3_conv_dw_batchnorm"
  name: "res_5_block3_conv_dw_batchnorm"
  type: "BatchNorm"
  batch_norm_param {
    use_global_stats: true
    moving_average_fraction: 0.9
    eps: 0.001
  }
}
graph_node
  bottom: "res_5_block3_conv_dw_batchnorm"
  top: "res_5_block3_conv_dw_batchnorm"
  name: "res_5_block3_conv_dw_batchnorm_scale"
  type: "Scale"
  scale_param { bias_term: true }
}

graph_node
  bottom: "res_5_block3_conv_dw_batchnorm"
  top: "res_5_block3_conv_dw_relu"
  name: "res_5_block3_conv_dw_relu"
  type: "PReLU"
}

graph_node
	bottom: "res_5_block3_conv_dw_relu"
	top: "res_5_block3_conv_proj_conv2d"
	name: "res_5_block3_conv_proj_conv2d"
	type: "Convolution"
	convolution_param {
		num_output: 512
		kernel_size: 1
		pad: 0
		stride: 1
		bias_term: false
	}
}

graph_node
  bottom: "res_5_block3_conv_proj_conv2d"
  top: "res_5_block3_conv_proj_batchnorm"
  name: "res_5_block3_conv_proj_batchnorm"
  type: "BatchNorm"
  batch_norm_param {
    use_global_stats: true
    moving_average_fraction: 0.9
    eps: 0.001
  }
}
graph_node
  bottom: "res_5_block3_conv_proj_batchnorm"
  top: "res_5_block3_conv_proj_batchnorm"
  name: "res_5_block3_conv_proj_batchnorm_scale"
  type: "Scale"
  scale_param { bias_term: true }
}

graph_node
  name: "_plus31"
  type: "Eltwise"
  bottom: "res_5_block3_conv_proj_batchnorm"
  bottom: "_plus30"
  top: "_plus31"
  eltwise_param { operation: SUM }
}

graph_node
	bottom: "_plus31"
	top: "conv_6sep_conv2d"
	name: "conv_6sep_conv2d"
	type: "Convolution"
	convolution_param {
		num_output: 512
		kernel_size: 1
		pad: 0
		stride: 1
		bias_term: false
	}
}

graph_node
  bottom: "conv_6sep_conv2d"
  top: "conv_6sep_batchnorm"
  name: "conv_6sep_batchnorm"
  type: "BatchNorm"
  batch_norm_param {
    use_global_stats: true
    moving_average_fraction: 0.9
    eps: 0.001
  }
}
graph_node
  bottom: "conv_6sep_batchnorm"
  top: "conv_6sep_batchnorm"
  name: "conv_6sep_batchnorm_scale"
  type: "Scale"
  scale_param { bias_term: true }
}

graph_node
  bottom: "conv_6sep_batchnorm"
  top: "conv_6sep_relu"
  name: "conv_6sep_relu"
  type: "PReLU"
}

graph_node
	bottom: "conv_6sep_relu"
	top: "conv_6dw7_7_conv2d"
	name: "conv_6dw7_7_conv2d"
	type: "ConvolutionDepthwise"
	convolution_param {
		num_output: 512
		kernel_size: 7
		pad: 0
		group: 512
            engine:CAFFE
		stride: 1
		bias_term: false
	}
}

graph_node
  bottom: "conv_6dw7_7_conv2d"
  top: "conv_6dw7_7_batchnorm"
  name: "conv_6dw7_7_batchnorm"
  type: "BatchNorm"
  batch_norm_param {
    use_global_stats: true
    moving_average_fraction: 0.9
    eps: 0.001
  }
}
graph_node
  bottom: "conv_6dw7_7_batchnorm"
  top: "conv_6dw7_7_batchnorm"
  name: "conv_6dw7_7_batchnorm_scale"
  type: "Scale"
  scale_param { bias_term: true }
}

graph_node
  bottom: "conv_6dw7_7_batchnorm"
  top: "pre_fc1"
  name: "pre_fc1"
  type: "InnerProduct"
  inner_product_param {
    num_output: 512
  }
}

graph_node
  bottom: "pre_fc1"
  top: "fc1"
  name: "fc1"
  type: "BatchNorm"
  batch_norm_param {
    use_global_stats: true
    moving_average_fraction: 0.9
    eps: 2e-05
  }
}
graph_node
  bottom: "fc1"
  top: "fc1"
  name: "fc1_scale"
  type: "Scale"
  scale_param { bias_term: true }
}

